model_random2.pth (torch, 17216 bytes, 4 tensors)

linear1.weight f4 [256, 11]
00000000: a941 aebe ec69 243e 2e41 5e3c 4863 983e
00000010: f6e4 9cbd fca8 ee3b 00eb 5f3e 5cfd 15be
00000020: c3e0 e6bd e6d8 d1bd eb44 d4be 2364 873d
00000030: 1e89 85bf 57ee 583d e99a 52bf bf51 243f
00000040: 9b59 5dbe 65ce 05bf 58f3 91bf 0367 0d3e
00000050: f0d1 9fbf 3ef6 a03b 236b 5b3e 4994 67be
00000060: 0a42 12be d621 39be fdf3 2d3c 4f82 88be
00000070: 78cf 53be 6933 d8be 6f29 febc accc dcbe
00000080: 765d d0bc 252a 20bf a639 38bf fed7 1dbe
00000090: 1bc3 a73e de59 b83d 245d afbe 3c4b 7bbe
000000a0: b40c 62be 1fb9 4fbf 3020 1ebf 96b6 26be
000000b0: 5d82 053e 185b 6dbc 7b09 9cbc f9b6 0d3d
000000c0: 78d0 593d ba02 6bbe 8ce6 36be 3715 313e
000000d0: 87c1 2e3e 1ee6 5e3d 5723 103d 4ece aabe
000000e0: c60c 493e a00b 8bbd a3e9 2e3e bc43 8bbe
000000f0: 7a7f b6bd 3257 793b 4b08 5abe 0220 dbbd
00000100: 8578 debd 670a 163c 536b 213e aafb eabd
00000110: b0c6 55bc 6c60 723d 8724 59be 9448 63be
00000120: 8124 753d fc86 e93d aca1 843d 7348 9abe
00000130: ab07 28be f02d 68bf af3c 1a3c 5bf7 75bf
00000140: 73c8 483f f172 1ebf 25ce 0ebf dd19 aa3e
00000150: 0154 4bbf 19be 5ebf dfa0 4bbf 7d15 4f3d
00000160: f4b8 36be a496 adbd 9170 29be b159 debd
00000170: a11d b0be f814 93bc df8b 4bbd cc11 093e
00000180: 5107 0a3e 1a37 fcbe 062e 84be 5730 2dbd
00000190: 74f0 0c3f c0bc 2fbf a0d0 083f fcc0 683e
000001a0: 27dc 46bd 4eba 4b3f 7cb6 d7be 3b97 b33e
000001b0: 435d 74bf 413e 9bbf f4db 7bbe 0c33 86be
000001c0: 0fff b7be 34ed afbe 0589 b2be e206 d8bd
000001d0: b071 c0bb 6a42 a93d 2bac 67be 9d92 f83c
000001e0: 7f7d 28be bd07 993b 1be7 48be b69a b7be
000001f0: 5dfc 39be 412f d6be a773 b8bd 99cd 34bf
00000200: 5e26 433d df29 0c3f 5e86 003e 9c6b 293e
00000210: 13be 2e3d bfa3 d2be f131 863c 8678 b7bd
00000220: d20d 4bbe 16fb babe fa8c 44bc 27b7 34bb
00000230: b56d 833d a4c8 a5be acfa 813d 63cd 4b3b
00000240: ac61 413e e6e1 103c 0768 08bf e4e9 abbc
00000250: 56e3 76be baab 45be e3e7 053d cd7e 0fbe
00000260: 7f0d 993c bca4 74be 8872 0fbd a594 e0bd
00000270: 9d2a 8fbc 22de 85bd fe75 463a 5008 02be
00000280: 8559 553d 7862 863d 1182 cb3b 635b 01bd
00000290: 7206 aa3d 093a 12be f8bf 153d 55fa aebb
000002a0: a16b 03be d8fe 2c3e a0a8 133e 00a5 7abe
000002b0: 97a9 9fbe c279 563d df3e 02be d17a 76be
000002c0: 59e5 253e f891 e73c 6d62 44bd 6e08 65be
000002d0: 89ab d6bd 48e1 82be 90a4 69be 286b fe3e
000002e0: 81c9 b13e b9f2 173e 192e 1c3e fb72 b9be
000002f0: e5a5 ebbe 064f 16be 3a58 9fbe d127 94be
00000300: fc07 b83c 09ee 9ebe 341a f0be dea6 86be
00000310: 6b32 31bc cdbb 82be 7a44 223d a4b8 7f3d
00000320: dc1e 43bb fab8 82be d578 a8bd ab51 a13d
00000330: a31b 47be 5cd7 26bd e2cc 153e 75a5 9dbe
00000340: c43d dc3d d613 c5bd aca7 fdbe 9696 fd3e
00000350: 7d63 2c3f 1112 463e e41f 10be 72e0 55be
00000360: 2a58 a5be ab10 8abf bb36 0dbf 8db7 413d
00000370: 238b 2abe 0b14 bdbe a208 26be 02bd d7bd
00000380: a918 d8be c751 cdbe c837 b8be 0ea9 023f
00000390: 3bca f33e 7753 a73e 809c f53e 5ab5 cebe
000003a0: 80e0 44be b2a7 b9be ceb1 0abd 1adf dabe
000003b0: de0c acbd 4626 67be d2e0 603d 391f 0e3d
000003c0: 7e61 2abe 4323 cc3c d53c 473d f759 88bd
000003d0: 45d0 c2be b7c1 22bf ec8b 35bf 30c8 6abf
000003e0: 05e8 27bf 9bb8 0d3f da6d 6a3f afea 243f
000003f0: ef44 6b3f e177 223d c27a 93be 720e ab3d
-0.3403447 0.16056031 0.013565345 0.29763246 -0.07660858 0.007283328 0.21866989 -0.1464743
-0.11273339 -0.10246448 -0.4145883 0.066108964 -1.043247 0.052961674 -0.82267624 0.64187235
-0.21616213 -0.5226806 -1.1402388 0.13808827 -1.2485943 0.004912167 0.21427588 -0.2261516
-0.14283004 -0.18079314 0.010617253 -0.26661918 -0.20684612 -0.42226723 -0.031025616 -0.43124902
-0.02543519 -0.6256431 -0.71962965 -0.15414426 0.3276604 0.09001516 -0.34250748 -0.24540418
-0.22075158 -0.8114185 -0.61767864 -0.16280589 0.13038011 -0.0144870505 -0.01904749 0.034598324
0.053177327 -0.22950259 -0.17861384 0.17293249 0.17066012 0.054418676 0.035189953 -0.33360523
0.19633779 -0.06789327 0.17081313 -0.27200115 -0.08911033 0.0038046357 -0.21292226 -0.106994644
-0.10862831 0.009157754 0.15763597 -0.11473782 -0.013047859 0.059173986 -0.2120534 -0.22195655
0.059849266 0.11402699 0.06476149 -0.301334 -0.16409175 -0.90695095 0.009413882 -0.9608056
0.7843086 -0.61894137 -0.557833 0.33222857 -0.79425055 -0.87008816 -0.79542345 0.050557602
-0.17843992 -0.08475998 -0.16546847 -0.10856951 -0.34397605 -0.017954335 -0.04969394 0.13385695
0.13479353 -0.4926079 -0.25816363 -0.04228243 0.550544 -0.68647385 0.53443336 0.22729868
-0.048549797 0.79581153 -0.42131412 0.35076317 -0.95454806 -1.2128373 -0.24595624 -0.2621082
-0.35936782 -0.3436066 -0.34870163 -0.10548188 -0.0058729276 0.082646206 -0.2262427 0.030343348
-0.16454123 0.004670112 -0.1961941 -0.35860223 -0.18162675 -0.41832927 -0.09006434 -0.7062622
0.04764401 0.5475139 0.12551257 0.16544956 0.042661738 -0.41140553 0.016381236 -0.08958535
-0.19829491 -0.36519688 -0.011996502 -0.0027574988 0.06417409 -0.3237964 0.0634664 0.0031097762
0.18884915 0.008842921 -0.53283733 -0.020985551 -0.2411016 -0.1930379 0.032691848 -0.14013214
0.018683193 -0.23890966 -0.035021335 -0.10965852 -0.017476374 -0.06536509 0.0007570683 -0.12698483
0.052087326 0.0656175 0.0062105735 -0.031581294 0.083020106 -0.14279951 0.03656003 -0.0053399005
-0.12834026 0.1689409 0.14419794 -0.24477005 -0.31184074 0.05236221 -0.12719296 -0.24070288
0.1620077 0.028267846 -0.04794543 -0.22366497 -0.104819365 -0.255625 -0.22816682 0.4969113
0.34724048 0.14838685 0.1525196 -0.36220536 -0.46025005 -0.14678583 -0.31122 -0.28936628
0.022464745 -0.3104098 -0.4689499 -0.26299185 -0.010815243 -0.25533906 0.039616086 0.062431946
-0.0029773032 -0.2553175 -0.08226172 0.07876905 -0.19444136 -0.040732726 0.14628938 -0.30790296
0.10753968 -0.09622924 -0.49541986 0.4952895 0.6733931 0.1934283 -0.14074665 -0.208864
-0.32293826 -1.0786337 -0.5516164 0.04729419 -0.16654639 -0.36929354 -0.1621423 -0.10534097
-0.42206314 -0.40101454 -0.35980058 0.51039207 0.47615227 0.32680866 0.47970963 -0.40372735
-0.19226265 -0.36260754 -0.033860974 -0.42748338 -0.08400892 -0.22573194 0.054901905 0.034697745
-0.16638753 0.024919158 0.048642 -0.066577844 -0.38049522 -0.63576835 -0.7091663 -0.9171171
-0.6558841 0.5535981 0.9157387 0.644206 0.9190206 0.039665107 -0.28804594 0.083523646

linear1.bias f4 [256]
00000000: 358c bebe 39d6 063d d071 5abe 9fb1 2ebe
00000010: 8be8 f6be 07a8 c7be 7985 afbe b5d1 78be
00000020: e46a 39be c18d 66be 2e98 11be 956a 48bf
00000030: 8da6 9abe eb36 8cbe 4158 59be 59fb 97be
00000040: 0349 40bf 8f5b 5fbc 944a 26bf bf2e 59bf
00000050: 497c 63bf f2bf e0bd d3b7 a3bf d79b afbe
00000060: 7eb1 cbbe c407 53be b79e 6dbf 4ac0 e8be
00000070: 6987 b2be 6a8c 9dbf 52f8 47bf 592e 47bf
00000080: cd83 4abf 7505 c4bf f950 1ebd 528b c4be
00000090: 7cea babe 1bab 84be 5036 16be c3f7 d1be
000000a0: 3ba7 d8be a2ca f1be caca 6ebe 1bf4 8cbd
000000b0: 3de8 0bbf a136 833f 35f9 7abe 34e7 9dbf
000000c0: 824e 5dbf a190 a5be 7d7c 95be 010b 67be
000000d0: 2ed6 1abe dfe1 eabe 2eb5 1abe 1093 1b3f
000000e0: 5a34 4bbf 1027 91bf 8d92 05bf aa6b 1dbf
000000f0: b336 65be 4936 d4be 12d8 acbc eb21 29be
00000100: 2531 85bf 4f83 87be a7b2 92be cb3f 60bf
00000110: a0de c8bf 6d07 c9be 54cf e7be 3969 01be
00000120: cc2e 08bf 36d0 943e c0bc 4f3f 23d9 9abe
00000130: b0c7 6cbe c372 99bf 60ad e9be 9d5d 92bd
00000140: 2f80 26bd 9a3e a6be b51e a03d ddf7 35bf
00000150: 9c21 953d b857 adbd 9e28 f2be 6476 e7be
00000160: 2ac9 d2bf 78ca b3bd 587b 84be 47ef cfbe
00000170: 1085 a23f 9c62 8f3f b384 9abe 1f42 f03c
00000180: acd3 78be 0a75 14be 31c4 bbbe 7bd1 fcbd
00000190: 1c47 0cbf 01d6 ea3b e587 4abe 90e0 33be
000001a0: 4111 b9be 2170 b3be eced 17bf d020 cdbe
000001b0: 7f0b 84bf 324e d6bc 3355 25bf a940 2ebf
000001c0: 0ccf dbbe f57e e3be 0446 32be 8c2b afbe
000001d0: c1d7 8bbe 018a 99bd 750e 77be c99e 48bf
000001e0: 879d 0fbf 5852 f9be e8de 46bf 747d 6fbe
000001f0: e0ab 043f d90d 8fbe 2903 babe 300a cebf
00000200: 5c44 abbf e5c1 0dbf 956e 27be 9246 f1be
00000210: b9da 913b f88e 3fbf c0ef 85be 018f bfbf
00000220: a588 1bbe 888b f4be 95ef 1cbf dd23 a2be
00000230: a630 ac3d 28d3 cebe 76bd c1be 4ce7 bfbe
00000240: b115 11bf db45 8ebe a8e3 13be a056 ecbe
00000250: a5b5 13be f718 c2be d413 283f b41f 73be
00000260: 6d6a 6fbe ae3d a6be 2cd0 0dba 0e5d abbe
00000270: 127f 14bf fbbc 4ebe 50a0 95bf 5aa2 1abe
00000280: 16c0 cebd bc12 bebe ba1a e3be 8cf0 fdbe
00000290: feab 20be 882a eabd 5beb 77bf ee46 c5be
000002a0: 14a5 bcbe 17e8 a2be e6d3 a2be 33dc 10bf
000002b0: cac7 813d 1337 a7bf 8bb1 07bf acc2 8abf
000002c0: 444d 5bbf a2e2 a6be a6bd 2abe 86d1 88be
000002d0: cf51 f0be 9ae4 f03d 3064 23be 12ac e13d
000002e0: eaa4 c6bd ef9d 15bf 02fc 29bf 441d 8b3d
000002f0: daf4 f4bd c2d3 48be a727 3dbe afdb 12bf
00000300: 689d 2bbf bad3 f7be 6cc3 ecbe 7106 eabe
00000310: e2af 45bf 9b89 16be ee14 5cbe 86f0 37bf
00000320: 1a10 b8bf e55f 0dbf 6af1 90be 96c3 80be
00000330: 9163 5e3e d3db e4be d63d 8ebe faea 85be
00000340: a50e 1dbe 85d7 01bf 074b c13d 78f2 bfbf
00000350: e942 cabc 9c23 0dbf beab 09bf 101d 28bf
00000360: c553 de3d d946 dfbf fdb9 debe 2a50 cabe
00000370: adca 79bd dd5a 8bbe 751b 8ebe 1460 c7be
00000380: e526 05be 67b2 bfbe aa41 c6bf cfd3 c5bf
00000390: eb16 90be 0868 053e 7f3f 16be 9c83 a8be
000003a0: 3fe2 bcbd cd0c e1be 69d6 253d e94e 83bf
000003b0: e4ed 22bf 92e5 bfbf 7ac8 2ebf 640f a7be
000003c0: b44e 45bd ec9a 89be 8e3e 10be d2c0 47be
000003d0: 2ca9 29bf 1f85 0bbf d384 ebbe cc71 babf
000003e0: ee30 02bf fb3f 08bf 268d 69bd 4c28 efbe
000003f0: 5034 74be c7ae 8b3e c9c1 0cbe db25 debf
-0.37216344 0.032919142 -0.21332479 -0.17059945 -0.4822429 -0.38995382 -0.3428152 -0.24298747
-0.18107182 -0.22515012 -0.14218208 -0.7828763 -0.30205193 -0.2738565 -0.21225072 -0.2968395
-0.7511141 -0.013632669 -0.6495755 -0.84836954 -0.8886152 -0.10974111 -1.2790474 -0.34298584
-0.39783853 -0.20608431 -0.92820305 -0.45459205 -0.34868935 -1.2308476 -0.7811328 -0.77805096
-0.7910736 -1.5314165 -0.03865144 -0.38387543 -0.36507022 -0.25911793 -0.14669156 -0.4100934
-0.42315087 -0.4722491 -0.23319545 -0.06882497 -0.5465124 1.0251046 -0.24509127 -1.2336183
-0.8644792 -0.32336906 -0.2919654 -0.22562791 -0.15120766 -0.4587545 -0.15108177 0.60771275
-0.7937676 -1.1340046 -0.52176744 -0.6149241 -0.22384147 -0.41447666 -0.021099124 -0.16516845
-1.0405623 -0.26467368 -0.28651926 -0.8759734 -1.569294 -0.39263478 -0.45275366 -0.12637796
-0.53196406 0.29065102 0.81147385 -0.30243787 -0.2312305 -1.1988147 -0.45640087 -0.071467616
-0.04064959 -0.32469636 0.07818357 -0.71081334 0.07281801 -0.08463997 -0.47296613 -0.45207512
-1.646764 -0.08778852 -0.25875354 -0.40612242 1.2696857 1.1201968 -0.30179366 0.029328404
-0.24299496 -0.14497772 -0.3667312 -0.12344643 -0.54796004 0.0071666245 -0.19778402 -0.17566133
-0.36145976 -0.35046485 -0.59347415 -0.40064096 -1.0316008 -0.026160333 -0.6458313 -0.68067414
-0.42931402 -0.44432798 -0.17409521 -0.3421291 -0.27313045 -0.07497025 -0.24126609 -0.78367287
-0.5609974 -0.48695636 -0.7768388 -0.233877 0.5182476 -0.27940252 -0.36330536 -1.6096859
-1.3380237 -0.55373985 -0.16350777 -0.47124153 0.0044511226 -0.7482753 -0.26159477 -1.4965516
-0.15188845 -0.47762704 -0.61303073 -0.31667987 0.084077165 -0.40395474 -0.3783986 -0.37481153
-0.56673723 -0.2778767 -0.14442313 -0.4615984 -0.1442476 -0.37909672 0.65655255 -0.23742563
-0.23380442 -0.32468933 -0.0005409743 -0.33469433 -0.58006394 -0.20189278 -1.1689548 -0.15100995
-0.10095231 -0.37123668 -0.44356328 -0.49597585 -0.1569061 -0.114338934 -0.968435 -0.38530678
-0.36844695 -0.31817695 -0.3180229 -0.56586 0.06336935 -1.3063682 -0.53005284 -1.0840659
-0.85664773 -0.32594782 -0.16673908 -0.26722354 -0.46937415 0.11762352 -0.15956187 0.11019148
-0.096994236 -0.5844411 -0.6640016 0.06792691 -0.11960764 -0.19612029 -0.18472157 -0.5736646
-0.6703706 -0.48403722 -0.46242845 -0.4570804 -0.772215 -0.1470093 -0.21492359 -0.71851385
-1.4379914 -0.5522445 -0.28309184 -0.2514922 0.21717669 -0.44698963 -0.27781552 -0.26155835
-0.15337618 -0.5071948 0.094381385 -1.499587 -0.024690108 -0.5513246 -0.5377768 -0.65669346
0.108558215 -1.7443496 -0.43501273 -0.39514285 -0.060984302 -0.2721776 -0.27755323 -0.3894049
-0.13003118 -0.37440798 -1.5488789 -1.5455264 -0.28142485 0.13027966 -0.1467266 -0.3291291
-0.092228405 -0.4395508 0.04048768 -1.0258456 -0.6364424 -1.4991934 -0.6827465 -0.3262893
-0.04817076 -0.2687601 -0.14086363 -0.19507149 -0.6627376 -0.545 -0.45999774 -1.4565978
-0.5085591 -0.53222626 -0.057019375 -0.46710432 -0.2384808 0.27281782 -0.13745798 -1.7355303

linear2.weight f4 [3, 256]
00000000: 624c c33d a542 81bb 42e2 6e3d a064 58be
00000010: 53b4 96bb 0d95 efbd 8230 cebb 5935 cabe
00000020: 180f 92be 078a debe da09 b43b fe25 1dbd
00000030: db0f 05bc c364 3dbd 68b1 8abc 2879 403e
00000040: f226 1fbc 6d03 123e 03fe 543d c652 f23d
00000050: 9a9b 65bd 419c 4c3b eda4 7e3c 68c4 8c3b
00000060: 232f 2b3c d566 25be aa12 1e3f d2cf acbe
00000070: aabe 3f3e dc55 d33f c57a 6ebc 9a94 963e
00000080: 0dc7 e13e 9edd 9e3f bf92 823c 7f2a a03e
00000090: 452c 8a3e 76ea 4abf 20ec 8e3c 739e 98bd
000000a0: 97ff 693e 327d 38bd 5eb1 80bd b3bc 05bd
000000b0: 5a0f ab3c fcca 103f 5d1c debe d35b 07bf
000000c0: abbb af3d 4ddc 353b 5c31 26be f18d e23e
000000d0: 1084 ac3b 7150 dfbe c376 adbc 562a 923f
000000e0: ba63 29be bad0 97be 8c64 8dbe b72d 043d
000000f0: 3d2d 093c f7bb 15bc 90d4 9c3d c65a ddbc
00000100: d95f d9bb 1ea3 a83c 8967 333c 784c 033f
00000110: 2842 d03d 5d41 d03e 4955 593e 3bef 9c3c
00000120: 5015 313d c80b 4e3e 2c62 533f bfea 44be
00000130: da88 3f3d 274e 033f 1ec6 453e dd69 0cbf
00000140: 044b 85bf 90db 2c3c 3faf 963d 028c ba3e
00000150: 1d28 c5bc 2750 6f3f 5aaa 033e 0471 8a3c
00000160: fb4a 873e d274 603e 892b 253c ddb4 07bd
00000170: 7005 643f b1e3 ad3f 434e 1dbd babf e7bb
00000180: 00a8 f83c 211a b13c f44c cfbd dfd5 4fbd
00000190: 55d2 55bf 01cd f23d 0cc2 e6be 87a4 89bf
000001a0: 5ee2 bdbe a6bd cfbe 22ec 86bf cae9 9c3d
000001b0: d6f8 283f f184 25bd 88d1 47be e4e5 a83c
000001c0: ae26 313d 4f5a 79bf 0300 83bc 32f2 053d
000001d0: 86fc ba3b 0718 d2bd 0919 f73c cefb 413f
000001e0: 31cd cabd cea6 63bf 0ace 2abf 773b 98bd
000001f0: 2efb 073f 9a0c 22bd 1897 813d da2b f4be
00000200: f916 04be fdb3 e03c 50ea 553c 0d63 19bd
00000210: 4194 b93d aaa7 6abe 8e44 17bc 5941 dabe
00000220: 9e19 a439 bb73 8d3c 2a83 00be 9a76 9a39
00000230: 647a 933c 8f88 413c 561e 96bb d0ae dd3d
00000240: bc1f f03e 7b38 01bc 668e 083e fa17 17bf
00000250: 4bc2 823e a5f1 5fbb 7242 303f c306 37bb
00000260: e0cb 783d c6cb 6bbd 9d53 48bf 0eb6 23be
00000270: 9698 30bc 7ae3 07be 8310 93bd cc65 443d
00000280: c58a b13d 4039 72bc e82a 31bc bbd4 b7bc
00000290: 7d9a 02bf d708 f83d c204 1e3f 8403 73bc
000002a0: 31da 2ebe e041 7fbd e066 49bc 43f7 77bd
000002b0: 2d92 e03d abaa 56bd 6483 11be 2d40 9a3e
000002c0: 07b6 0ebf 7f5d 5b3c 6c75 de3d 25ae 30bf
000002d0: 90b5 79bc da5a f53c fcff 08bf 9556 adbe
000002e0: 34bf 54bf aad4 b7be 2e7b 0b3f ac16 af3d
000002f0: 317e 613e 40cc 8b3c 1749 1abe 520d c83d
00000300: 34d6 2cbc f82e b5be 7d72 643e 9f90 20bf
00000310: 11d9 6dbd 73ee d73d 663b c0bd 2173 6f3e
00000320: b307 393f efa2 c9bd 3d5c 0fbf 7182 28bd
00000330: a9a6 903e beed 99bf 2290 27bd 2fdc 913c
00000340: 0395 b9bf 64c5 7d3e 80d5 833d e461 123f
00000350: 999a bb3b 3758 27bc 660a d9bd a684 1d3d
00000360: b74c 06bf d841 343e c563 a43d 0c6f 6dbb
00000370: 44b0 383d ce42 0dbe 03b9 14bd 4685 b33e
00000380: d7bd 6dbc 23f9 993d ccdc e23e bdd6 fbbe
00000390: 4faf 843e 6ba3 db3d fb0f 763b 11e9 df3d
000003a0: 296d bdbe c904 df3e b4de 9d3e a1a0 91bd
000003b0: 0cd4 48bf fb8d 2f3f 4765 87bc 4114 f5bb
000003c0: 7ee1 e43a bb0c 1fbe 991b c8ba 9505 34bd
000003d0: 0a53 07be 4c1b e83d 2fe0 913d 8ca6 9c3e
000003e0: 3804 0cbf 138b c1bc 4d71 7a3d 013c e4bc
000003f0: 6da6 4ebc c4cb c63e a316 6bbc 6aa0 cabe
0.09536053 -0.003944712 0.058321245 -0.21132135 -0.004599133 -0.11698351 -0.0062924037 -0.39493826
-0.2852714 -0.43464682 0.0054943385 -0.03836631 -0.008121456 -0.046238672 -0.016930297 0.18796217
-0.009713875 0.1425912 0.052000057 0.11832194 -0.056056596 0.0031221064 0.015542251 0.0042958744
0.01044825 -0.16152509 0.6174723 -0.33752304 0.18725076 1.6510577 -0.014555638 0.2941025
0.44097176 1.2411382 0.015939115 0.31282422 0.269869 -0.7926401 0.017446578 -0.07452097
0.22851406 -0.04504127 -0.0628383 -0.03265066 0.020881344 0.5655973 -0.43381014 -0.5287449
0.08580717 0.0027749718 -0.16229767 0.44248918 0.0052647665 -0.4361606 -0.021174794 1.141917
-0.16541949 -0.29651433 -0.27615774 0.03227016 0.008372602 -0.009139053 0.076577306 -0.027020823
-0.0066337404 0.020585593 0.010949978 0.5128856 0.10168868 0.40674868 0.2122394 0.019157043
0.043233216 0.20121682 0.82571673 -0.19230174 0.04676137 0.51291126 0.19313857 -0.54849035
-1.0413518 0.010550395 0.07357644 0.36434942 -0.024066979 0.9348168 0.12857953 0.016899593
0.26424393 0.21919563 0.01008118 -0.03313147 0.89070797 1.3585111 -0.038404714 -0.007072416
0.030353546 0.021618905 -0.101220995 -0.050741073 -0.83524066 0.11855508 -0.4506992 -1.0753335
-0.37086767 -0.40574378 -1.0540812 0.07661779 0.66004694 -0.040409986 -0.19513524 0.020617433
0.04324978 -0.97403425 -0.015991217 0.03270168 0.0057063727 -0.10258489 0.030163305 0.7577485
-0.099024184 -0.889264 -0.6672064 -0.07433217 0.53117645 -0.0395628 0.06327647 -0.47689706
-0.12899388 0.027429575 0.013056353 -0.037447978 0.0906148 -0.22915521 -0.009232653 -0.4262798
0.00031299604 0.017267099 -0.12550035 0.00029461534 0.018002696 0.011812343 -0.004581253 0.108243585
0.4689921 -0.007887001 0.1333557 -0.5902096 0.2553886 -0.003417113 0.6885139 -0.0027927614
0.060741305 -0.05756738 -0.78252584 -0.15987417 -0.010778567 -0.13270369 -0.07180884 0.047948644
0.08669046 -0.014784157 -0.010813452 -0.022440305 -0.5101698 0.12111061 0.6172601 -0.014832381
-0.17075421 -0.062318683 -0.012292594 -0.06053854 0.10965381 -0.052408855 -0.14210278 0.30127087
-0.557465 0.01338899 0.1086224 -0.69015723 -0.015241042 0.029950548 -0.535156 -0.3385512
-0.8310425 -0.35904437 0.5448483 0.08549246 0.22020794 0.017065167 -0.15066944 0.09768166
-0.010549117 -0.35387397 0.22309299 -0.62720674 -0.05806834 0.105435275 -0.09386329 0.23383762
0.72277373 -0.0984553 -0.5600012 -0.041140024 0.28252152 -1.2025678 -0.04090894 0.017805187
-1.44986 0.2478233 0.06437206 0.5718062 0.0057252166 -0.010213903 -0.105976865 0.03845658
-0.5246081 0.17603242 0.08026842 -0.003622952 0.045089975 -0.13795015 -0.036309253 0.35062617
-0.014510593 0.07518222 0.4430908 -0.4918727 0.25915 0.10724529 0.0037546146 0.10933126
-0.36997345 0.43558338 0.30833972 -0.07110716 -0.7844856 0.6857602 -0.016527785 -0.007479221
0.0017462221 -0.155322 -0.0015267014 -0.043950636 -0.1321527 0.113333315 0.07122838 0.30595815
-0.5469394 -0.023625886 0.06114321 -0.027860643 -0.012612921 0.38827336 -0.014348659 -0.3957551

linear2.bias f4 [3]
00000000: c16d a13f b754 fcbe 0271 e9be
1.2611619 -0.49283382 -0.4559403
