model1000.pth (torch, 17216 bytes, 4 tensors)

linear1.weight f4 [256, 11]
0.43620047 1.3612884 0.9811929 -0.4124045 -0.1075305 -0.33537665 0.0122469785 -0.4297381
-0.421424 -0.47907877 -0.19474956 0.97237575 0.2080931 0.15165922 -0.37985978 -0.103103876
-0.40887496 -0.0008498818 1.02455 0.6329647 1.0260985 0.7382229 0.045082606 -0.21082139
-0.19104195 0.17670415 -0.10539444 -0.22434953 -0.19497442 -0.29632413 -0.11165724 0.06476715
-0.07574377 -0.36772972 -0.72422105 -0.7589878 -0.12098797 -0.61253124 -0.41355655 -0.04512906
-0.38931483 -0.8309372 -0.28476208 -0.38769424 -0.003456077 -0.12705204 -0.012973247 -0.27056047
-0.51588124 -0.23940052 0.20868269 -0.1768013 -0.24664606 0.21552993 -0.40856448 -0.3813182
-0.3845235 -0.09833199 -0.075510755 -0.3563021 -0.35717353 -0.1371623 -0.072627 0.2266597
0.10098459 0.058414645 -0.6990037 0.018830385 -0.29785812 -0.115940064 -0.7219388 0.088683195
-0.21526156 -0.028477164 -0.66795564 -0.1762022 -0.025033545 -0.008511283 -0.073034935 0.32359785
0.021663597 -0.25759187 -0.39215162 0.037427235 -0.27819785 0.08566479 0.27997664 0.110667914
0.26421842 0.30286914 0.10256843 -0.27475443 -0.3818115 -0.33043718 -0.42901626 0.05857998
0.0010066164 0.06627711 0.15605588 -0.62894917 -0.96910334 -0.0926672 0.50855345 -0.049341235
0.6298288 -0.50732577 -0.5786034 0.28334016 -0.9523913 -0.30449232 0.055867963 0.30578944
-0.3672015 -0.10661504 -0.44425258 -0.2101201 0.5481084 -1.4123826 -0.7228297 0.45364118
-0.13130386 0.2909035 0.40716484 0.28003636 -0.49234578 0.32154766 -0.30329186 -0.110971086
0.3219692 -0.2379517 0.31664833 -0.20651497 -0.08999632 0.5461552 -0.75827146 -0.2214585
0.5891157 0.018742947 -0.42074582 0.3261149 -0.3635568 -0.7859965 -0.015379274 -0.0853553
0.30694744 -0.0075638564 0.04059989 -0.24965957 0.0017810884 -0.038523864 -0.26168177 -0.076797314
-0.17222019 0.08606029 0.577288 -0.7850808 0.118491404 -0.09388727 0.019997185 0.43382376
0.03734062 0.08165587 0.052580185 -0.48142052 0.01848002 -0.2154216 0.16620648 -0.78613216
0.17285095 -0.4303915 0.117839366 -0.027285334 -0.5193227 -0.17236076 -0.075878605 -0.3658861
-0.13130619 0.31695575 -0.7324454 -0.37929347 -0.1114226 -0.61724764 0.037832282 0.09521329
-0.35523888 0.19089282 -0.51677245 0.18318716 0.64484763 0.17007288 -0.4689232 0.13167411
-0.6935114 0.18379262 0.5028426 -0.4262065 0.46713397 0.16268802 0.24004355 -0.8277449
-1.3127574 -1.0686451 0.050849136 -0.7779613 -0.24261117 -1.1129392 0.328901 -0.7476809
-1.0418813 0.5717586 -1.3211075 0.3048331 -0.09279204 -0.15529713 -1.0036536 0.62563944
0.21102288 -0.8849219 -0.042438254 -0.7817914 0.0015598834 0.25684115 -0.11689483 -0.072049774
-0.2571532 -0.12277749 -0.23880933 -0.04421407 -0.28411502 -0.040715236 -0.09618111 0.033825368
0.002698809 -0.14820789 -0.03685823 -0.24348019 -0.13882937 -0.075614884 0.20704079 -0.13815998
-0.0739577 -0.17488907 -0.0047340454 0.5456539 0.0029745926 -0.06371985 -0.5004406 -0.16368578
-0.21492402 0.007126689 0.047951408 -0.05003965 -0.112466134 -0.16579421 -0.011092916 -0.26058525
00000000: ab55 df3e b33e ae3f 752f 7b3f af26 d3be
00000010: f338 dcbd 7db6 abbe 8da7 483c a206 dcbe
00000020: e3c4 d7be d049 f5be 6e6c 47be 9eed 783f
00000030: 5c16 553e 8e4c 1b3e fb7c c2be 2028 d3bd
00000040: 0f58 d1be 9aca 5eba 7424 833f f909 223f
00000050: 3257 833f 2dfc 3c3f 8aa8 383d 90e1 57be
00000060: 80a0 43be eff1 343e 0ad9 d7bd e2bb 65be
00000070: 60a7 47be ccb7 97be 8dac e4bd a4a4 843d
00000080: 8d1f 9bbd 1247 bcbe 8d66 39bf 064d 42bf
00000090: 8ac8 f7bd d9ce 1cbf afbd d3be 40d9 38bd
000000a0: 4654 c7be 4db8 54bf 56cc 91be dc7f c6be
000000b0: 5a7f 62bb ee19 02be be8d 54bc e786 8abe
000000c0: cb10 04bf 6925 75be eab0 553e 660b 35be
000000d0: c990 7cbe e1b3 5c3e 5d2f d1be 243c c3be
000000e0: 44e0 c4be 4862 c9bd 62a5 9abd 3b6d b6be
000000f0: 73df b6be 4674 0cbe 77bd 94bd 7b19 683e
00000100: 02d1 ce3d 3244 6f3d e8f1 32bf 2e42 9a3c
00000110: dc80 98be fc71 edbd fbd0 38bf 899f b53d
00000120: 876d 5cbe f148 e9bc 24ff 2abf 596e 34be
00000130: 2613 cdbc e972 0bbc 5793 95bd 9eae a53e
00000140: db77 b13c 15e3 83be 19c8 c8be 4d4d 193d
00000150: f36f 8ebe 0571 af3d 1959 8f3e dca5 e23d
00000160: a347 873e aa11 9b3e 660f d23d 9dac 8cbe
00000170: cc7c c3be 102f a9be 05a8 dbbe 90f1 6f3d
00000180: 71f0 833a 4bbc 873d 1dcd 1f3e d002 21bf
00000190: 2817 78bf 4dc8 bdbd 8f30 023f 091a 4abd
000001a0: 763c 213f 1ae0 01bf 5a1f 14bf f611 913e
000001b0: ebcf 73bf 6be6 9bbe ced5 643d 6f90 9c3e
000001c0: d601 bcbe fc58 dabd 1375 e3be b929 57be
000001d0: d550 0c3f f4c8 b4bf 5e0b 39bf a843 e83e
000001e0: 8574 06be 4ef1 943e e977 d03e ed60 8f3e
000001f0: bf14 fcbe e5a1 a43e 1249 9bbe cf44 e3bd
00000200: 26d9 a43e 9ca9 73be bb1f a23e a978 53be
00000210: fe4f b8bd d4d0 0b3f 141e 42bf 04c6 62be
00000220: 49d0 163f cf8a 993c ff6b d7be 88f8 a63e
00000230: 1e24 babe 1137 49bf 5af9 7bbc c2ce aebd
00000240: 3728 9d3e 3ada f7bb 124c 263d c2a6 7fbe
00000250: 6973 e93a 33cb 1dbd 27fb 85be e947 9dbd
00000260: 7d5a 30be 6140 b03d 25c9 133f 0efb 48bf
00000270: 9fab f23d f847 c0bd 23d1 a33c 261e de3e
00000280: 7af2 183d 313b a73d 525e 573d c07c f6be
00000290: 6963 973c 7b97 5cbe 0832 2a3e f53f 49bf
000002a0: d7ff 303e 465c dcbe c455 f13d 7e85 dfbc
000002b0: 55f2 04bf 577f 30be 3e66 9bbd 6c55 bbbe
000002c0: 2175 06be 0648 a23e 8b81 3bbf c132 c2be
000002d0: 8831 e4bd f103 1ebf 06f6 1a3d 2fff c23d
000002e0: dfe1 b5be 6879 433e 334b 04bf 6a95 3b3e
000002f0: bc14 253f 9627 2e3e b416 f0be 94d5 063e
00000300: f789 31bf 2234 3c3e 4bba 003f bd37 dabe
00000310: 2f2c ef3e b097 263e facd 753e 17e7 53bf
00000320: 6f08 a8bf 5dc9 88bf 2f47 503d 7928 47bf
00000330: 106f 78be cb74 8ebf b665 a83e 0468 3fbf
00000340: 5e5c 85bf c65e 123f 0d1a a9bf 1613 9c3e
00000350: c109 bebd 3606 1fbe b977 80bf e829 203f
00000360: 6216 583e 3e8a 62bf bcd3 2dbd 7b23 48bf
00000370: 0075 cc3a af80 833e 8e66 efbd d58e 93bd
00000380: 96a9 83be c472 fbbd 6f8a 74be d019 35bd
00000390: 8677 91be 05c5 26bd 9afa c4bd 788c 0a3d
000003a0: 80de 303b cfc3 17be a8f8 16bd df52 79be
000003b0: 4929 0ebe fadb 9abd 8002 543e cf79 0dbe
000003c0: 2277 97bd 1f16 33be 0d20 9bbb f9af 0b3f
000003d0: 62f1 423b 8d7f 82bd e01c 00bf 3f9d 27be
000003e0: 0b15 5cbe 0087 e93b b268 443d 60f6 4cbd
000003f0: a554 e6bd f5c5 29be 10bf 35bc 6e6b 85be

linear1.bias f4 [256]
-0.09589716 -0.77313566 -0.30890688 0.24428682 -0.5644046 -0.2594963 -0.08353366 -0.7591385
-0.73679376 -0.07383617 -0.30773118 -0.5854728 -0.64896065 -0.44221696 -0.33006394 -0.2909407
-0.40541044 -0.44605878 0.3654127 -0.23553705 -0.26862216 -0.28568614 -0.6249487 -0.094048776
0.29457176 -0.36377785 -0.822251 -0.35061333 -0.10993595 -0.4052982 -0.41970438 0.1879245
-0.2185958 -0.018191697 0.25706214 -0.46812662 -0.15624255 -0.026254607 -0.3881177 -0.072376914
-0.55960065 -0.1295283 -0.43106204 -0.25970802 -0.6428362 -1.0051957 0.14133763 -0.34837487
-0.4191488 0.18688281 0.5572356 -0.53168935 -0.0062257447 -0.43190962 -0.66201484 0.24602532
-0.10528254 -0.6501289 -0.042920336 -0.24353425 0.028883293 -0.24200563 0.5483966 -0.27820835
0.19714688 -0.82555646 -0.46749482 -0.8835551 -0.18484703 -0.4148613 -0.8705181 -0.22312522
-0.7143353 -0.31541017 0.67719966 0.70193136 -0.5476002 0.5520231 -0.14857408 0.48230428
0.35425144 -0.4768274 0.09491342 -0.6045034 -0.049212996 -0.5593665 -0.3052487 -0.2777343
-0.3154369 -0.28207693 0.16760775 -0.4737348 -0.39548367 -0.3648361 -0.87925553 -0.49267787
-0.38626832 -0.20037079 -0.06074652 -0.013598432 -0.22774465 -0.4506783 -0.338243 -0.3296636
-0.4112058 0.031037478 -0.08825045 -0.27107543 -0.028090965 -0.6054737 0.17862073 -0.3881769
-0.36298057 -0.405619 0.046497922 -0.6324557 -0.33337322 -0.3548341 -0.51087844 0.25073522
-0.32378283 -0.71104467 0.35197577 -0.069102086 0.49365324 -0.4542933 -0.23164389 -0.50814885
-0.42223465 -0.55937845 -0.87608266 -0.3892362 0.044563733 -0.14602666 -0.15047619 -0.45796347
-0.8968224 -0.06511895 -0.5961669 0.48556072 -0.10219971 -0.26282108 -0.42649165 -0.6716877
-0.30171424 -0.16616188 -0.30781528 -0.16544934 -0.1374844 -0.55878556 -0.17434117 -0.39867416
-0.25039184 -0.42719778 -0.30958152 -0.19542073 -0.7157892 -0.12521511 -0.20584507 0.5917619
-0.5246607 -0.3339525 0.1796869 0.33658397 -0.34265202 -0.8378772 -0.0076146224 -0.2692967
-0.6283316 -0.49710548 -0.19142406 -0.32648376 -0.11946035 -0.16664435 0.09251924 -0.34874728
0.2669457 -0.3665158 0.119595796 -0.6609171 -0.29679966 -0.6194731 -0.6592153 0.8115727
-0.12762202 0.07729879 -0.34536925 0.078467146 -0.26044345 -0.47826043 -0.13944115 -0.5762254
-0.4217542 0.16176014 0.19585444 -0.44251016 -0.59985554 0.55875033 -0.47570378 -0.05673531
0.22603993 0.28807557 0.0789542 -0.18929751 -0.20721635 0.079913504 0.017270258 -0.70543593
0.3517321 -0.4594523 0.35607147 0.32746562 -0.28967708 -0.4042959 0.63478124 -0.3372174
0.0451417 0.31695384 -0.59760684 -0.14796011 0.5485947 -0.47137824 0.1172204 -0.16959067
-0.54534674 -0.2842785 -0.25367418 -0.9763167 -0.55699474 -0.57585466 0.3722807 0.47990927
-0.4290314 -0.013884617 -0.43686983 -0.8135859 -0.37821132 0.44337055 -0.51749694 -0.061045058
-0.31697047 -0.07463835 -0.3148252 -0.07634103 -0.47161376 -0.8881892 -0.31363165 0.45008835
-0.07808678 -0.27164656 -0.28502816 -0.6850288 -0.26782072 -0.5375119 -0.40929872 -0.64297044
00000000: bb65 c4bd 38ec 45bf 0b29 9ebe 5326 7a3e
00000010: d27c 10bf b3dc 84be b213 abbd e756 42bf
00000020: 849e 3cbf 6b37 97bd f18e 9dbe 8ce1 15bf
00000030: 4922 26bf 436a e2be 24fe a8be 2ef6 94be
00000040: f591 cfbe d161 e4be 6017 bb3e a030 71be
00000050: d888 89be 7445 92be a3fc 1fbf a59c c0bd
00000060: 1cd2 963e 1741 babe 0b7f 52bf 9783 b3be
00000070: 1926 e1bd 3f83 cfbe 7ee3 d6be 486f 403e
00000080: 94d7 5fbe c106 95bc a69d 833e 4bae efbe
00000090: 0cfe 1fbe e713 d7bc 5db7 c6be 593a 94bd
000000a0: fd41 0fbf 11a3 04be 2ab4 dcbe 73f8 84be
000000b0: ea90 24bf 41aa 80bf d0ba 103e 315e b2be
000000c0: ac9a d6be 355e 3f3e fea6 0e3f cb1c 08bf
000000d0: 5501 ccbb 4223 ddbe ce79 29bf 10ee 7b3e
000000e0: 5f9e d7bd d96e 26bf 3ccd 2fbd 0b61 79be
000000f0: a89c ec3c 53d0 77be b863 0c3f 5371 8ebe
00000100: dfe0 493e ab57 53bf 7b5b efbe ab30 62bf
00000110: 8a48 3dbe b368 d4be 46da 5ebf f07a 64be
00000120: aede 36bf 717d a1be f55c 2d3f c6b1 333f
00000130: 872f 0cbf 6351 0d3f ce23 18be 96f0 f63e
00000140: 7260 b53e b922 f4be f861 c23d bcc0 1abf
00000150: 9193 49bd a532 0fbf 8f49 9cbe 3133 8ebe
00000160: f280 a1be 636c 90be 5ea1 2b3e 5e8d f2be
00000170: d67c cabe cccb babe e416 61bf 4640 fcbe
00000180: f6c4 c5be 002e 4dbe 58d1 78bd f5cb 5ebc
00000190: e535 69be 4ebf e6be 302e adbe abc9 a8be
000001a0: 9189 d2be 4f42 fe3c a7bc b4bd 66ca 8abe
000001b0: 061f e6bc 5300 1bbf 5ae8 363e 1fbf c6be
000001c0: 97d8 b9be 4bad cfbe 9b74 3e3d 9ee8 21bf
000001d0: e5af aabe d1ac b5be eec8 02bf 5e60 803e
000001e0: ddc6 a5be 0607 36bf 2b36 b43e 6585 8dbd
000001f0: 1ec0 fc3e 2299 e8be 0e34 6dbe 0b16 02bf
00000200: 242f d8be 6d33 0fbf f446 60bf f849 c7be
00000210: 7688 363d 0388 15be 6e16 1abe 307a eabe
00000220: 2796 65bf 165d 85bd 659e 18bf 6a9b f83e
00000230: 154e d1bd 7c90 86be 1d5d dabe baf3 2bbf
00000240: 4a7a 9abe 5726 2abe f799 9dbe 8d6b 29be
00000250: b6c8 0cbe 920c 0fbf 7e86 32be 051f ccbe
00000260: 5c33 80be abb9 dabe 7881 9ebe 5f1c 48be
00000270: f63d 37bf 6438 00be 0dc9 52be b57d 173f
00000280: 2a50 06bf d2fb aabe d8ff 373e bc54 ac3e
00000290: 1670 afbe 1f7f 56bf 1584 f9bb 42e1 89be
000002a0: 57da 20bf 9c84 febe ab04 44be e128 a7be
000002b0: a1a7 f4bd d1a4 2abe ba7a bd3d 018f b2be
000002c0: 1bad 883e f5a7 bbbe a4ee f43d dd31 29bf
000002d0: 20f6 97be ca95 1ebf 55c2 28bf 3ac3 4f3f
000002e0: 59af 02be d44e 9e3d 3dd4 b0be 62b3 a03d
000002f0: d858 85be 8dde f4be a9c9 0ebe 8283 13bf
00000300: 2bf0 d7be 73a4 253e 118e 483e b190 e2be
00000310: 2290 19bf 430a 0f3f 728f f3be 4963 68bd
00000320: 0377 673e a47e 933e bdb2 a13d 35d7 41be
00000330: 8630 54be b1a9 a33d 5b7a 8d3c 7397 34bf
00000340: 3b16 b43e 553d ebbe 004f b63e 93a9 a73e
00000350: 8e50 94be dfff cebe 0681 223f c2a7 acbe
00000360: 81e6 383d c647 a23e c3fc 18bf db82 17be
00000370: b470 0c3f 7d58 f1be 4011 f03d 2da9 2dbe
00000380: d89b 0bbf f48c 91be 95e1 81be e4ef 79bf
00000390: 3597 0ebf 366b 13bf 939b be3e abb6 f53e
000003a0: 01aa dbbe 4e7c 63bc 67ad dfbe 2a47 50bf
000003b0: eaa4 c1be 7701 e33e ae7a 04bf 620a 7abd
000003c0: f449 a2be fedb 98bd c530 a1be b058 9cbd
000003d0: 5c77 f1be 5e60 63bf 5494 a0be fb71 e63e
000003e0: f6eb 9fbd 4215 8bbe 36ef 91be 0c5e 2fbf
000003f0: cc1f 89be 619a 09bf 9a8f d1be b699 24bf

linear2.weight f4 [3, 256]
0.08434536 -0.4556651 -0.033810332 -0.036914572 0.037326913 -0.07484945 -0.20889121 0.23566954
-0.05757681 -0.20399427 -0.5313742 -0.014467005 -0.19011205 0.0038394644 -0.009165622 -0.057419516
-0.03776466 -0.08167888 0.07279408 -0.05425491 -0.043743618 0.006587498 -0.006006521 -0.053882003
0.38222957 -0.14757796 0.16969447 -0.04031814 -0.01213107 -0.05852047 -0.3385724 -0.0056350017
-0.09362674 -0.0733086 0.1299235 0.06952865 -0.019923389 -0.020267837 -0.0056780116 -0.004948388
-0.19766882 -0.035491083 -0.078091696 -0.02235682 -0.054330207 -0.004146066 0.3676216 -0.29884106
-0.03507866 0.11053464 0.4626125 -0.03323857 -0.01690651 -0.08936009 -0.043808278 0.4044131
-0.07079902 -0.017358087 0.4002486 0.014033676 -0.682931 0.041434653 0.009117061 -0.21624361
0.014265235 0.015286637 0.013173154 0.106920965 0.002221456 -0.40360144 -0.043326247 -0.66024524
-0.011547479 -0.06927936 0.6815941 0.2903144 0.056530688 0.31193137 0.030089876 0.4575914
0.25114438 -0.07108532 0.4344221 -0.085118525 -0.24811289 -0.034967575 -0.011311065 -0.19949234
-0.04713748 0.0020477083 0.33221203 -0.114382155 0.00565773 -0.36988866 -0.0075655603 -0.19967803
-0.0037691803 0.009692533 0.10991052 0.00016537477 -0.019441627 -0.0028529775 0.07641191 -0.11060254
-0.20684148 -0.002952577 -0.108447574 0.024163023 0.22889198 -0.09179368 0.29805166 0.003668239
0.0011421785 -0.21420152 -0.14373717 -0.5992299 -0.3525755 0.012072302 -0.3652056 0.17751725
0.009866414 -0.044358473 0.2254115 -0.95047593 0.08538982 -0.5790092 0.037087835 0.012751615
-0.0023650602 0.22778484 -0.030557143 0.047508225 -0.2884521 -0.30219844 -0.075663365 -0.04849166
0.015265239 -0.044439603 -0.45800045 0.22531079 -0.51810575 -0.1853698 -0.07347143 0.22092974
-0.69907725 -0.13996057 -0.20463537 -0.027998991 0.043556415 -0.02436645 -0.018858587 -0.123322204
-0.62640643 -0.09009237 0.0130402865 -0.32046732 0.23799302 0.36399978 0.046790864 0.767912
-0.16618335 0.015084879 -0.011234694 0.62862146 -0.058996033 -0.14666605 -0.0063158693 -0.024528338
0.11386481 -0.22726674 0.015665097 -0.32074496 -0.0030115547 0.15479508 0.39296454 -0.0048218025
0.62023705 -0.37312225 -0.07089682 -0.042531557 -0.57006735 -0.30425513 -0.21889354 0.66145295
-0.14091134 0.30055448 0.073786154 0.18915069 0.062186204 0.015731627 0.09194928 -0.24646287
-0.13026103 -0.08688332 0.51207435 -0.4056835 -0.033318885 0.256063 4.5081215e-05 -0.47079098
0.46333155 0.3264374 -0.26354125 -0.9843276 0.038881768 -0.054506656 -0.020065485 0.04868242
0.1805434 -0.013603314 0.17419674 0.1853153 -0.14472386 -0.6805734 0.5840232 -0.31671798
-0.039846 0.79830205 0.18493606 -0.31068715 0.14811401 -0.00490936 0.36624137 -0.26966447
-0.75136095 -0.4049961 0.007868592 -0.061105218 0.09776683 -0.0071164253 0.42626324 0.14885609
0.12274023 0.22165647 0.0014760788 -0.040516835 -0.0702885 0.47074178 0.003741243 0.06351298
-0.30320016 -0.17983514 -0.040426116 -0.38316193 0.030200507 -0.29057664 -0.08136367 0.120465696
0.02191389 -0.7074419 -0.005882313 -0.122910455 0.006556837 0.07870606 -0.015108275 -0.26220924
00000000: 43bd ac3d f04c e9be b47c 0abd bc33 17bd
00000010: 1be4 183d ab4a 99bd 94e7 55be 5b53 713e
00000020: a9d5 6bbd e0e3 50be 2408 08bf 0407 6dbc
00000030: bcac 42be 869f 7b3b 682b 16bc ba30 6bbd
00000040: 1eaf 1abd 4247 a7bd 1015 953d 663a 5ebd
00000050: 822c 33bd f0db d73b 5ad2 c4bb 60b3 5cbd
00000060: 98b3 c33e ad1e 17be 63c4 2d3e a224 25bd
00000070: 65c1 46bc 29b3 6fbd 5d59 adbe d2a5 b8bb
00000080: 60bf bfbd d222 96bd aa0a 053e 0965 8e3d
00000090: 6036 a3bc bc08 a6bc 9d0e babb 1626 a2bb
000000a0: b269 4abe 195f 11bd 8aee 9fbd a625 b7bc
000000b0: 5a89 5ebd b9db 87bb e638 bc3e b201 99be
000000c0: a4ae 0fbd fc5f e23d 8cdb ec3e 2b25 08bd
000000d0: 857f 8abc 6c02 b7bd 4f70 33bd 3c0f cf3e
000000e0: 14ff 90bd 8c32 8ebc 62ed cc3e 81ed 653c
000000f0: 91d4 2ebf 62b7 293d ba5f 153c f76e 5dbe
00000100: bbb8 693c cd74 7a3c 36d4 573c 61f9 da3d
00000110: d995 113b d9a4 cebe dd76 31bd d505 29bf
00000120: a331 3dbc 56e2 8dbd f37c 2e3f 17a4 943e
00000130: b98c 673d 78b5 9f3e 0b7f f63c 6c49 ea3e
00000140: ff95 803e 2e95 91bd 936c de3e 9f52 aebd
00000150: 4e11 7ebe 293a 0fbd 0c52 39bc b847 4cbe
00000160: 3b13 41bd d832 063b b217 aa3e 3141 eabd
00000170: 7b64 b93b 0c62 bdbe 85e8 f7bb 6678 4cbe
00000180: 5a04 77bb 6ecd 1e3c c418 e13d 7468 2d39
00000190: 0c44 9fbc 05f9 3abb d97d 9c3d 9683 e2bd
000001a0: 41ce 53be 0680 41bb c319 debd 88f1 c53c
000001b0: a962 6a3e 53fe bbbd 3a9a 983e d766 703b
000001c0: 27b5 953a a557 5bbe d62f 13be 2167 19bf
000001d0: c784 b4be e8ca 453c 3afc babe 15c7 353e
000001e0: bda6 213c 3bb1 35bd 46d2 663e 6452 73bf
000001f0: dce0 ae3d f239 14bf 6ae9 173d 26ec 503c
00000200: 20ff 1abb 6e40 693e f952 fabc fc97 423d
00000210: feaf 93be c1b9 9abe 65f5 9abd 319f 46bd
00000220: 0e1b 7a3c 4d06 36bd 097f eabe dfb7 663e
00000230: 94a2 04bf 95d1 3dbe 3078 96bd 683b 623e
00000240: baf6 32bf d351 0fbe ef8b 51be 245e e5bc
00000250: 3668 323d 269c c7bc 537d 9abc 5a90 fcbd
00000260: 2c5c 20bf 5982 b8bd eda6 553c 4b14 a4be
00000270: 71b4 733e 2e5e ba3e c7a7 3f3d e195 443f
00000280: f82b 2abe 9126 773c b911 38bc 56ed 203f
00000290: d3a5 71bd a02f 16be 5af5 cebb a7ef c8bc
000002a0: f431 e93d 9db8 68be 1754 803c af38 a4be
000002b0: 815d 45bb 9a82 1e3e a632 c93e 3600 9ebb
000002c0: dbc7 1e3f e109 bfbe 5a32 91bd 9235 2ebd
000002d0: efef 11bf 54c7 9bbe a125 60be fb54 293f
000002e0: 104b 10be 47e2 993e 321d 973d b8b0 413e
000002f0: f6b6 7e3d 9ddf 803c e74f bc3d c360 7cbe
00000300: 2663 05be e2ef b1bd 4e17 033f bfb5 cfbe
00000310: 6279 08bd b11a 833e 9615 3d38 840b f1be
00000320: cb39 ed3e ce22 a73e e1ee 86be e5fc 7bbf
00000330: 7d42 1f3d 5f42 5fbd 5f60 a4bc 3867 473d
00000340: 5ee0 383e 6fe0 5ebc a160 323e 4bc3 3d3e
00000350: 7e32 14be 0f3a 2ebf 8b82 153f dc28 a2be
00000360: 8f35 23bd 865d 4c3f e15f 3d3e 6312 9fbe
00000370: 33ab 173e b2de a0bb fd83 bb3e 7611 8abe
00000380: 3159 40bf a65b cfbe 44eb 003c 7749 7abd
00000390: fa39 c83d e730 e9bb 2d3f da3e bb6d 183e
000003a0: 3b5f fb3d eaf9 623e fc78 c13a fbf4 25bd
000003b0: 6bf3 8fbd 1105 f13e a42f 753b 1813 823d
000003c0: 0d3d 9bbe b426 38be db95 25bd cd2d c4be
000003d0: 0e67 f73c 76c6 94be ffa1 a6bd b8b6 f63d
000003e0: c284 b33c ea1a 35bf 6bc0 c0bb 7ab8 fbbd
000003f0: bcda d63b a530 a13d b388 77bc 4a40 86be

linear2.bias f4 [3]
0.7801635 -0.23117296 -0.1307831
00000000: ccb8 473f 9bb8 6cbe 01ec 05be
