model2500.pth (torch, 17216 bytes, 4 tensors)

linear1.weight f4 [256, 11]
0	0xbd6672d7	-0.056261864
1	0xbed966cc	-0.4246124
2	0x3dd969f1	0.1061591
3	0xbf0bef9f	-0.5466251
4	0x3e4d664d	0.20058556
5	0xbecbdf01	-0.39818576
6	0xbe19513a	-0.14972392
7	0xbef5ebc1	-0.48031428
8	0xbeec3fc4	-0.461424
9	0xbf04b9d7	-0.5184607
10	0xbd8b3cf5	-0.06798736
11	0x3d4ea502	0.050450332
12	0x3e28f526	0.16499767
13	0x3db36385	0.08759216
14	0xbf835e9a	-1.0263245
15	0x3ec03c17	0.37545845
16	0x3ee213b8	0.4415567
17	0x3d1b52a9	0.037920628
18	0x3f5c73ce	0.86114204
19	0xbf720793	-0.9454281
20	0xbffe7e22	-1.9882243
21	0xbfd64f9d	-1.6743046
22	0xbeb8fd09	-0.3613055
23	0xbe7a1eb8	-0.24425781
24	0x3e2d41ec	0.16919678
25	0x3d2deedd	0.042464126
26	0xbeeacb0e	-0.45858043
27	0xbcd0b423	-0.02547652
28	0xbef850c2	-0.48499113
29	0xbf0a64b9	-0.5405994
30	0x3da04479	0.0782556
31	0xbe69e3f5	-0.22840865
32	0xbe072a49	-0.13199724
33	0x3e023581	0.12715723
34	0xbfa77baf	-1.308462
35	0xbe85f99d	-0.26167002
36	0xbfb11d2e	-1.383703
37	0x3f3c2100	0.73487854
38	0x3eb47f78	0.352535
39	0xbf8554fb	-1.0416559
40	0xbfaf93d7	-1.3716992
41	0x3f5be6e1	0.8589917
42	0xc00aee8a	-2.1708093
43	0xbf8a8441	-1.0821611
44	0xbf1bcb4e	-0.60857093
45	0xbe9a57ad	-0.30145016
46	0x3dad3afe	0.084585175
47	0xbe398c9f	-0.18120049
48	0x3e1d007f	0.1533222
49	0xbd932161	-0.07184101
50	0x3e3ed2e0	0.1863513
51	0xbf9873c3	-1.1910328
52	0xbf8a38d2	-1.079859
53	0xbfd199e2	-1.6375086
54	0xbfb58028	-1.4179735
55	0xbe83a0eb	-0.25708708
56	0xbe43bd3b	-0.19115154
57	0x3dca04cc	0.09864196
58	0xbe397074	-0.18109304
59	0xbd881480	-0.06644535
60	0xbdac0b67	-0.08400612
61	0xbd43a5ba	-0.04776547
62	0xbdab9a2f	-0.083790176
63	0xbd963192	-0.073336735
64	0x3db22ebb	0.087003194
65	0xbe1f4b83	-0.15556149
66	0x3d803c1e	0.062614664
67	0xbf3cf9b8	-0.7381854
68	0xbef64741	-0.48101237
69	0xbf13af63	-0.57689494
70	0xbe6c6c98	-0.230883
71	0xbe15f8fe	-0.14645764
72	0xbe39503e	-0.18097016
73	0xbf824323	-1.0176739
74	0xbe556106	-0.20837793
75	0xbf098e58	-0.53732824
76	0xbeb93b81	-0.3617821
77	0x3d1f470b	0.03888611
78	0x3e18d33d	0.14924331
79	0xc0042c8a	-2.0652184
80	0x3e829da2	0.2551089
81	0xbee57261	-0.44813827
82	0xbf8c3512	-1.0953696
83	0x3fa09913	1.2546715
84	0xbf29f60a	-0.6639105
85	0x3f04002f	0.5156278
86	0x3c8fe7fd	0.017566675
87	0xbfada5ed	-1.3566262
88	0x3e03d1b1	0.1287296
89	0xbf594bef	-0.8488149
90	0x3fa241c9	1.2676326
91	0xbf9312d5	-1.1490122
92	0xbeb1f38c	-0.34756124
93	0xbe80b7d8	-0.25140262
94	0xbe806e9e	-0.25084394
95	0xbe8a676d	-0.27032033
96	0xbf3f8bae	-0.7482251
97	0xbc227689	-0.009915956
98	0xbec5dc15	-0.38644472
99	0xbf14f8d0	-0.5819216
100	0x3e53a40a	0.20668045
101	0x3e6f91ce	0.23395464
102	0xbf4ce2b2	-0.8003341
103	0xbf294beb	-0.66131467
104	0xbee1f7a1	-0.44134238
105	0xbe994142	-0.299326
106	0xbea6cea7	-0.32579538
107	0xbf465fc7	-0.77489895
108	0x3e1f323a	0.15546504
109	0x3cbc66b3	0.02299819
110	0x3ecb3ae4	0.39693367
111	0x3ea367cf	0.31915137
112	0xbed36ab0	-0.41292334
113	0xbdb961b3	-0.09051838
114	0xbec12a3c	-0.37727535
115	0xbe899d10	-0.26877642
116	0xbef60ea2	-0.4805804
117	0xbed94759	-0.42437246
118	0xbef16cab	-0.4715322
119	0xbea74c1d	-0.32675257
120	0x3cd1c6fa	0.025607575
121	0xbd275310	-0.0408507
122	0xbf12d4c6	-0.57355917
123	0x3ef5a351	0.47976163
124	0x3f29d9cb	0.6634795
125	0xbe8837f4	-0.2660519
126	0x3fa113b1	1.2584134
127	0x3f1394fc	0.5764921
128	0xbfb5a288	-1.4190226
129	0xbf17a62e	-0.59237945
130	0xbcf77b6f	-0.030210225
131	0x3f106b07	0.5641331
132	0xbdd5c2f7	-0.10437577
133	0x3ec4aec2	0.3841458
134	0x3e8cab9a	0.27474672
135	0xbd02b643	-0.0319121
136	0xbe3525cb	-0.17690198
137	0xbef87ab4	-0.48531115
138	0xbe37527d	-0.1790256
139	0x3e589663	0.21151118
140	0x3e56734f	0.20942424
141	0x3e18b5dd	0.14913125
142	0x3be14c91	0.0068755825
143	0xbf01700a	-0.50561583
144	0xbe6a4368	-0.22877276
145	0x3d5a8331	0.05334777
146	0x3d667e8c	0.05627303
147	0x3dbf5f2d	0.09344325
148	0x3d02cd28	0.031933933
149	0xbd10c542	-0.03534437
150	0xbdfabc6d	-0.122429706
151	0xbe848712	-0.258843
152	0xbe1e1bd8	-0.15440309
153	0xbdf02970	-0.117266536
154	0xbce40390	-0.02783373
155	0xbc61458c	-0.013749491
156	0xbddbd794	-0.10734478
157	0x3d3f598e	0.046716265
158	0x3df66774	0.12031451
159	0xbe1adcb6	-0.15123257
160	0x3dc21812	0.09477247
161	0xbe525e2e	-0.20543739
162	0xbe172924	-0.14761788
163	0x3e25ae6b	0.16179816
164	0xbe949c5f	-0.29025552
165	0xbf3a5544	-0.72786355
166	0x3e627663	0.22115473
167	0x3f610e25	0.8791221
168	0x3e6a951c	0.22908443
169	0x3d9462b7	0.07245391
170	0xbefd835b	-0.4951428
171	0xbfc8869f	-1.5666083
172	0x3f6b5828	0.9193139
173	0x3dc92a20	0.09822488
174	0xbfc58405	-1.5430914
175	0xbf46409b	-0.7744233
176	0x3e8b5312	0.27211815
177	0x3e7a75d5	0.24459012
178	0xbf657763	-0.89635295
179	0xbea847c1	-0.32867244
180	0x3e37d931	0.17953946
181	0xbe216e73	-0.1576479
182	0xbf4e7c96	-0.80658853
183	0x3ccbc668	0.02487488
184	0x3cdb3616	0.026759189
185	0xbf549858	-0.8304496
186	0x3e4e6924	0.20157295
187	0x3e20c378	0.15699565
188	0x3e544d74	0.20732671
189	0xbf02e5f0	-0.51132107
190	0xbf8ed417	-1.1158475
191	0x3abd4f9d	0.0014443282
192	0x3f3831f3	0.71951216
193	0xbf1d804e	-0.615239
194	0xbf998f0f	-1.1996783
195	0xbd06ce0c	-0.032911345
196	0xbef7b1fc	-0.4837798
197	0xbfba7bde	-1.4569051
198	0xbf69012c	-0.91017413
199	0x3eb95791	0.3619962
200	0xbeb09c30	-0.34494162
201	0xbf6fca66	-0.9366821
202	0xbf5464b6	-0.8296617
203	0x3f592b19	0.84831387
204	0xbf3489d5	-0.70522815
205	0xbfd2bf10	-1.6464558
206	0xc00d4a5b	-2.2076633
207	0x3f4c6ddf	0.7985515
208	0xbf740af9	-0.9532924
209	0x3f0cd4ca	0.5501219
210	0x3e8fb8fd	0.28070822
211	0xbf545d6f	-0.8295507
212	0x3ebda5fa	0.37040693
213	0x3ea2d593	0.3180357
214	0x3c947767	0.018123342
215	0x3e70881d	0.23489423
216	0x3d044702	0.03229428
217	0xbefa2e40	-0.4886341
218	0x3db18c2b	0.08669313
219	0xbf046bd5	-0.5172704
220	0x3ce653eb	0.028116187
221	0xbe4c19b2	-0.19931677
222	0x3b7d1776	0.003861872
223	0xbe960805	-0.29302993
224	0x3bd4f0d5	0.006498436
225	0xbd5ef8dd	-0.054436553
226	0xbdba324e	-0.09091626
227	0x3da5fbda	0.081046775
228	0x3e07f336	0.13276371
229	0xbe12cbd4	-0.14335567
230	0xbdd33607	-0.10313039
231	0xbec30bd3	-0.3809496
232	0xbdc922a2	-0.09821059
233	0xbf27690e	-0.65394676
234	0x3e737597	0.23775326
235	0xbe8497ac	-0.25896966
236	0xbf4eb4b6	-0.80744493
237	0x3df56c0a	0.119834974
238	0xbf4f2190	-0.8091059
239	0x3e0a4945	0.13504513
240	0xbf1f6e1c	-0.6227739
241	0xbf63b2cb	-0.8894469
242	0x3e5b3553	0.2140706
243	0x3ee47c25	0.44625965
244	0xbeb291e7	-0.3487694
245	0x3e9e45ee	0.30912727
246	0x3f2c8392	0.6738826
247	0x3fea3add	1.8299214
248	0x3e83af08	0.25719476
249	0xbfa9b36f	-1.3257884
250	0xc010b7d1	-2.2612193
251	0xbd116432	-0.035495944
252	0x3f443e09	0.7665716
253	0xbe1808f1	-0.14847161
254	0xbc82ee07	-0.01598264
255	0x3eec0d1a	0.46103746

linear1.bias f4 [256]
0	0xbe802c89	-0.25033978
1	0xbc43eaec	-0.011957865
2	0xbee000c3	-0.4375058
3	0x3ea87606	0.32902545
4	0x40435e05	3.0526135
5	0xbe183866	-0.14865264
6	0x3e8a9fc2	0.2707501
7	0xbe483d7a	-0.19554701
8	0x3dd99a56	0.1062514
9	0xbee0d30e	-0.43911022
10	0xbf43067f	-0.7618179
11	0xbfa1a3b7	-1.2628087
12	0xbf7fe281	-0.9995499
13	0xbd579249	-0.052629743
14	0xbeaf2de7	-0.34214708
15	0x3e476c71	0.19474961
16	0xbf6e7ddf	-0.93160814
17	0x3f8b3346	1.0875022
18	0xbe0b3f23	-0.13598303
19	0xbfb20105	-1.3906561
20	0xbe8a3a58	-0.26997638
21	0xbec14ace	-0.37752384
22	0xbfbd4000	-1.4785156
23	0xbf0f14a4	-0.5589087
24	0xbed9c327	-0.42531702
25	0xbec0adc2	-0.37632567
26	0xbf81b359	-1.0132858
27	0x3f2490b5	0.64283305
28	0xbf4ad595	-0.7923215
29	0xbea86bc6	-0.32894725
30	0xbe390afb	-0.18070595
31	0x3f8a00fb	1.0781549
32	0xbeaec3a2	-0.3413363
33	0xbf0ecf04	-0.5578463
34	0xbfadbc59	-1.3573104
35	0xbf8aa727	-1.0832261
36	0x3e3833c9	0.17988504
37	0xbe404c36	-0.18779072
38	0x3ceb7877	0.028743966
39	0xbec6f0d7	-0.3885562
40	0xbf173339	-0.59062535
41	0xbf26c158	-0.6513877
42	0xbd7c058b	-0.061528724
43	0xbf9189e2	-1.1370203
44	0xbeea1db9	-0.45725802
45	0xbe8089bd	-0.25105086
46	0xbf9f96e1	-1.246792
47	0xbf695e63	-0.9115965
48	0xbd768fe4	-0.06019582
49	0xbed2c390	-0.41164827
50	0xbeccded5	-0.40013757
51	0xbf1be92c	-0.6090267
52	0xbf0cfc59	-0.5507255
53	0xbedafc56	-0.42770642
54	0x3f122885	0.5709308
55	0x3f915dd9	1.1356765
56	0xbeecb08b	-0.46228442
57	0xbed887e0	-0.42291164
58	0xbf496c7c	-0.7868116
59	0xbf108e19	-0.56466824
60	0xbeca2dd8	-0.394881
61	0x3efa8142	0.4892674
62	0xbf85266e	-1.0402353
63	0xbf27f495	-0.6560758
64	0xbf26e706	-0.65196264
65	0xbf2a5464	-0.6653502
66	0xbf247b77	-0.6425089
67	0xbe13b6ca	-0.14425197
68	0xbf102161	-0.5630093
69	0xbf31f8d7	-0.69520324
70	0xbea44555	-0.32084146
71	0x3e9ea851	0.3098779
72	0xbedca6a6	-0.43095893
73	0x3e8c69d8	0.27424502
74	0xbf07b68a	-0.5301291
75	0xbe98fc1e	-0.2987985
76	0xbe550050	-0.208009
77	0xbf6d80b0	-0.92774487
78	0xbf3cca8d	-0.7374657
79	0xbf85976b	-1.0436834
80	0xbf35b6bc	-0.70981956
81	0xbebde399	-0.37087706
82	0xbee62180	-0.44947433
83	0xbdfb630b	-0.1227475
84	0x3f2e13ab	0.6799876
85	0x3f03ea2c	0.5152919
86	0xbe3b93eb	-0.18318145
87	0xbebd10ad	-0.36926785
88	0xbf0fa744	-0.561146
89	0xbe127d91	-0.14305712
90	0xbe6884a7	-0.22706853
91	0xbf77fb54	-0.9686787
92	0xbf035536	-0.51301897
93	0xbf14fc5b	-0.58197564
94	0xbef236a9	-0.47307327
95	0xbf7bbadf	-0.9833202
96	0xbf413670	-0.7547369
97	0xbf56862b	-0.83798474
98	0xbf241260	-0.6409054
99	0xbf236fe1	-0.6384259
100	0xbee0af81	-0.438839
101	0xbee62e49	-0.44957188
102	0xbeeb2b5f	-0.45931527
103	0x3d35121b	0.04420672
104	0xbe63d807	-0.22250377
105	0xbf74101e	-0.9533709
106	0xbea8838e	-0.32912868
107	0xbf13b4ba	-0.5769764
108	0xbf7ccef8	-0.9875331
109	0xbeca6a7d	-0.3953437
110	0xbf540f71	-0.8283606
111	0x3cbbcd30	0.02292499
112	0xbe85f412	-0.26162773
113	0xbeeb9048	-0.46008515
114	0xbf24ebb4	-0.64422154
115	0xbf51971a	-0.8187119
116	0x3e6f3b46	0.23362455
117	0xbe414dbd	-0.18877311
118	0x3f74dc6a	0.95648825
119	0xbf83095c	-1.0237231
120	0xbea5c3a9	-0.3237584
121	0xbeee57c6	-0.4655134
122	0xbf782a07	-0.9693913
123	0xbe58a3a5	-0.21156175
124	0xbe46fe0f	-0.19432853
125	0xbe96cef2	-0.29454762
126	0xbe691eca	-0.22765651
127	0xbd02270a	-0.03177551
128	0xbf002441	-0.5005532
129	0xbeec3732	-0.4613586
130	0xbf4f2c4c	-0.80926967
131	0xbfce826f	-1.6133555
132	0xbe13af64	-0.14422375
133	0xbe84090f	-0.2578816
134	0xbe94650f	-0.28983352
135	0xbf32ce0e	-0.69845665
136	0x3ee00164	0.4375106
137	0x3db513b9	0.088416524
138	0xbf8da916	-1.1067226
139	0x40052fb9	2.0810378
140	0xbf75e97a	-0.9605938
141	0xbe8d5f81	-0.27611926
142	0xbedd5e10	-0.43235826
143	0xbe29aba4	-0.16569382
144	0x3ee78300	0.45217133
145	0xbe52b82f	-0.20578073
146	0x3e96a551	0.29423
147	0xbf34d1ca	-0.7063261
148	0x3d64f263	0.05589522
149	0xbeae06f0	-0.33989668
150	0x3efead79	0.49741724
151	0xbf7ec3af	-0.9951734
152	0x3eaaeb3f	0.33382604
153	0xbf6ca506	-0.92439306
154	0xbf59af06	-0.8503269
155	0xbed49a1f	-0.41523835
156	0x3c09756d	0.008389813
157	0xbf171d00	-0.59028625
158	0xbed40c7b	-0.41415772
159	0xbf33e118	-0.7026534
160	0xbe8f516f	-0.27991816
161	0xbf425ddc	-0.7592447
162	0xbf5e6332	-0.8687011
163	0xbf44e3a4	-0.7690985
164	0xbf2d7583	-0.67757434
165	0xbe30e194	-0.17273551
166	0xbf92cb06	-1.1468208
167	0xbe9972c7	-0.2997038
168	0xbe64f200	-0.2235794
169	0xbf175582	-0.5911485
170	0x3ed75c81	0.42062762
171	0xbf2d59c3	-0.6771509
172	0xbea81af8	-0.32833076
173	0xbe45851b	-0.19289057
174	0xbf6937a4	-0.91100526
175	0xbf84fda4	-1.0389905
176	0xbf190690	-0.5977564
177	0xbf003920	-0.50087166
178	0xbeb1a61e	-0.3469705
179	0xbf52a97d	-0.8228987
180	0xbdd19e33	-0.10235252
181	0xbeb4afc1	-0.3529034
182	0xbf4751e0	-0.77859306
183	0xbfc67260	-1.5503654
184	0xbfbf7bd7	-1.4959668
185	0xbf39bf9f	-0.72558016
186	0xbf31d199	-0.69460446
187	0x3c49027a	0.012268657
188	0xbf1eaf1d	-0.6198595
189	0xbeb3399d	-0.35004893
190	0xbf3d1a44	-0.73868203
191	0xbeecb8d0	-0.4623475
192	0xbaf8575f	-0.0018946937
193	0xbe4ba7fb	-0.19888298
194	0xbd6ab0f2	-0.057297654
195	0xbf39b2e7	-0.7253861
196	0xbf3fa2d6	-0.7485784
197	0xbefafeb8	-0.4902246
198	0xbf9c818a	-1.2227032
199	0xbf8f6f23	-1.1205791
200	0xbef6d246	-0.482073
201	0xbe51a285	-0.20472153
202	0xbf351f36	-0.7075075
203	0xbf49af1c	-0.7878282
204	0xbf202815	-0.6256116
205	0xbf5dd449	-0.86652046
206	0xbecce856	-0.40021008
207	0xbed520dc	-0.41626632
208	0xbf51c20a	-0.81936705
209	0xbe583c82	-0.21116832
210	0xbf48035d	-0.7813013
211	0xbf353beb	-0.7079455
212	0xbd51ca7d	-0.0512185
213	0xbebd5c00	-0.36984253
214	0xbf0ce11d	-0.55030996
215	0xbf287550	-0.65804005
216	0xbf165680	-0.5872574
217	0xbed68260	-0.41896343
218	0xbe8ddb02	-0.27706152
219	0xbfc0ddb3	-1.5067657
220	0xbef540e1	-0.4790106
221	0xbf0577fa	-0.52136195
222	0xbef6950b	-0.48160586
223	0x3df88303	0.121343635
224	0xbf8a08f0	-1.0783978
225	0x4004ea02	2.0767827
226	0xbf31fd8a	-0.69527495
227	0x3ec7f2dc	0.39052474
228	0xbeb25125	-0.34827533
229	0x3f237c5d	0.6386164
230	0xbef0bea7	-0.47020456
231	0xbf58cfd5	-0.84692127
232	0xbf31c703	-0.6944429
233	0xbf326655	-0.69687396
234	0xbeb7c9b5	-0.35896078
235	0xbec3eeef	-0.3826823
236	0xbead73c7	-0.33877394
237	0xbf744b73	-0.95427626
238	0xbe641b25	-0.2227598
239	0xbf6206fe	-0.8829192
240	0xbf29605a	-0.66162646
241	0xbf1d9175	-0.61550075
242	0xbf5cd643	-0.8626444
243	0xbece81e2	-0.40333468
244	0xbe3f4be2	-0.18681291
245	0xbec2ddaa	-0.3805974
246	0xbf29d463	-0.663397
247	0xbeac72e6	-0.3368141
248	0xbe45f750	-0.19332623
249	0x3f42e46e	0.76129806
250	0xbf2d3f42	-0.6767465
251	0xbe901b6a	-0.28145915
252	0xbf19e290	-0.6011133
253	0xbe14d0d0	-0.1453278
254	0xbee9b217	-0.45643684
255	0xbea23817	-0.31683418

linear2.weight f4 [3, 256]
0	0x3c67401b	0.014114405
1	0xbff3e864	-1.9055295
2	0x3d4ab661	0.049490336
3	0x3e31e1dd	0.17371316
4	0x3f007557	0.50179046
5	0x3ceac9c5	0.028660664
6	0x3b556636	0.0032562143
7	0xbed7f7f8	-0.42181373
8	0xbab18f51	-0.001354674
9	0xbc89d4ab	-0.01682504
10	0xbde6a7fe	-0.11262511
11	0xbeb48c4b	-0.35263285
12	0xbc6965b3	-0.014245438
13	0x3baa3ccf	0.005195237
14	0xbaadb10f	-0.001325162
15	0x3e6ff057	0.23431526
16	0xbb457445	-0.0030129116
17	0x3f07cbcc	0.53045344
18	0x3eb85fa0	0.36010456
19	0x3e71d613	0.23616819
20	0x3cc0f62b	0.023554882
21	0x3d0d09ce	0.03443318
22	0xbebf0e3e	-0.37315553
23	0x3dc1a9ad	0.09456191
24	0xbde7f4c4	-0.11325982
25	0x3b57d799	0.0032934903
26	0xbf24f08c	-0.64429545
27	0x3f00a56b	0.5025241
28	0x3b0e1227	0.00216783
29	0xbe819df2	-0.25315815
30	0x3bdb1325	0.006685632
31	0x3f1891fa	0.5959774
32	0x3a96426b	0.0011463886
33	0x3b8c4f94	0.0042819474
34	0xbe7b7971	-0.24558045
35	0xbf004ba7	-0.50115436
36	0x3e114a84	0.14188582
37	0xbdabebae	-0.08394562
38	0xba638c69	-0.00086802855
39	0xbde1da09	-0.11027915
40	0xbf95ee9b	-1.1713442
41	0xbf2be802	-0.6715089
42	0xbe168299	-0.14698257
43	0xbddd9753	-0.108198784
44	0xbb2b1e2c	-0.0026110513
45	0xbca91f83	-0.020644909
46	0x3f341791	0.7034846
47	0xbf3dee9f	-0.7419223
48	0x3d6204f3	0.0551805
49	0xbf8caa24	-1.0989423
50	0xbd65c0c2	-0.05609203
51	0xbf344afe	-0.7042693
52	0x3c88a66d	0.01668092
53	0xbca9f9aa	-0.020748932
54	0x3e8b0f7e	0.27160257
55	0x3ebdad55	0.37046304
56	0x3d8edfe0	0.069762945
57	0x3d7b2a55	0.061319668
58	0xbf2ca476	-0.6743845
59	0xbe810920	-0.25202274
60	0xbd16169e	-0.036642663
61	0x3e91650d	0.28397408
62	0xbea048c2	-0.3130551
63	0xbce15802	-0.027507786
64	0x3d9d0b35	0.07668153
65	0xbf2c0245	-0.67190963
66	0x3c0e5486	0.008687144
67	0x3b2b7700	0.0026163459
68	0xbf2f735b	-0.68535393
69	0xbd874212	-0.06604399
70	0x3e407cca	0.18797603
71	0x3e65b48c	0.22432154
72	0xbdec28dc	-0.11531231
73	0x3c3a0a9b	0.011355068
74	0x3d5bb02a	0.0536348
75	0xbe910f14	-0.28331816
76	0x3be19e75	0.0068853446
77	0xbd8f65ce	-0.070018396
78	0xbe4b9f09	-0.19884886
79	0xbc387d8f	-0.011260404
80	0xbecb8af5	-0.39754453
81	0xbb80acef	-0.0039268653
82	0xbf33ea06	-0.70278966
83	0xbf5e4f6c	-0.8683994
84	0x3ef5e8cc	0.48029172
85	0x3f002a62	0.5006467
86	0xbc175651	-0.009236888
87	0x3d3de544	0.046361223
88	0xbe7d4cf7	-0.24736391
89	0xbcaf7d3e	-0.021422025
90	0xbdba88fa	-0.091081575
91	0xbea73f30	-0.32665396
92	0xbe2853c5	-0.16438206
93	0xbab7c295	-0.0014019782
94	0xbb9be2ef	-0.004757277
95	0xbf000906	-0.5001377
96	0xbb97a928	-0.0046283193
97	0xbc9e5c30	-0.019331068
98	0x3c27e568	0.010247566
99	0x3eced51e	0.4039697
100	0xbe9e06ed	-0.3086466
101	0xbdd2fd45	-0.103022136
102	0xbb334e15	-0.0027359773
103	0xbc944cf7	-0.018103106
104	0xbe0b0f69	-0.13580097
105	0x3ed0812e	0.40723556
106	0xbd20ec80	-0.039288044
107	0xbb5aa195	-0.003336047
108	0xbc231607	-0.009953982
109	0xbc916720	-0.01774937
110	0x3bda3451	0.0066590686
111	0xbc2d3997	-0.0105728125
112	0x3ce5e2c2	0.028062228
113	0xbd00951e	-0.03139221
114	0x3e1ff61c	0.15621227
115	0xbc43fa43	-0.0119615225
116	0xbda3f4a9	-0.080056496
117	0xbc756503	-0.014977696
118	0x3e4b8cd7	0.19877945
119	0x3ebdfa03	0.37104806
120	0xbd1f37ac	-0.038871452
121	0xbc72af22	-0.014812263
122	0xbee4b7d3	-0.44671497
123	0xbc042e2d	-0.00806765
124	0x3db531dd	0.08847401
125	0x3c0873be	0.008328376
126	0x3cadd064	0.021217532
127	0xbdb49941	-0.08818293
128	0xbed30833	-0.41217193
129	0x3b8b4e73	0.0042512952
130	0xbb65236e	-0.0034963745
131	0xbdabfc97	-0.08397787
132	0xbb594c3a	-0.0033157007
133	0xbd29e54f	-0.04147845
134	0x3e16cbfa	0.14726248
135	0x3d8a7893	0.06761279
136	0x3e0baa48	0.13639176
137	0x3ed06c3a	0.4070757
138	0xbc2c7d50	-0.010527924
139	0x3f2cde09	0.675263
140	0xbe31680a	-0.17324844
141	0xbb3a333b	-0.0028411883
142	0xbd8f9911	-0.07011617
143	0xbbe2f3fc	-0.006926058
144	0x3db483f6	0.08814232
145	0xbdc81d31	-0.09771193
146	0x3dac4500	0.08411598
147	0x3e83cc2e	0.25741714
148	0x3d0fa195	0.035066206
149	0xbc1aec3b	-0.009455736
150	0x3f18f2df	0.5974559
151	0x3db0f11e	0.086397395
152	0xbe1efa3a	-0.15525141
153	0xbd96b262	-0.073582426
154	0xbd25fde3	-0.04052533
155	0xbe03d945	-0.1287585
156	0xbef59496	-0.47964925
157	0x3e65133a	0.22370616
158	0x3cb840f5	0.022491911
159	0x3d8de390	0.0692817
160	0x3d31f11d	0.043442834
161	0xbe2345a8	-0.1594454
162	0xbcec89d6	-0.028874319
163	0xbde82749	-0.11335618
164	0xbeb954be	-0.36197466
165	0xbc00340d	-0.00782491
166	0xbcbf4bc5	-0.02335156
167	0xbe15ea0f	-0.14640068
168	0x3c2758b1	0.010214017
169	0xbdc9b997	-0.098498516
170	0x3e8e3f2f	0.2778258
171	0xbe20cc2c	-0.15702885
172	0xbc81891e	-0.015812453
173	0xbb281bdc	-0.002565137
174	0xbbe9c1e4	-0.0071337093
175	0x3bd2d4d6	0.0064340634
176	0x3c88dca0	0.016706765
177	0x3b3cc64f	0.0028804725
178	0xbb96fc5e	-0.004607721
179	0xbec46551	-0.38358548
180	0x3c674ac5	0.014116948
181	0x3ddde78e	0.10835181
182	0xbe8b3911	-0.27191976
183	0xbf0c6c2b	-0.5485255
184	0x3dfbc9c4	0.12294343
185	0xbe5c396e	-0.21506283
186	0x38727bf0	5.7812722e-05
187	0xbf283584	-0.6570666
188	0xbe83b25a	-0.2572201
189	0xbe30f2bf	-0.172801
190	0xbe7f57bd	-0.24935813
191	0xbec9a5eb	-0.39384398
192	0xbd581c0c	-0.052761123
193	0xbcad30fa	-0.021141518
194	0xbf46f490	-0.7771692
195	0xbd03ace3	-0.0321473
196	0xbc0d4768	-0.008622982
197	0xbe01a5c0	-0.12660885
198	0xbe9a80d3	-0.3017641
199	0x3d09d649	0.033651624
200	0x3c2b7756	0.010465464
201	0x3cafaba4	0.02144415
202	0x3ce28f35	0.027656177
203	0x3d7fceb8	0.062453
204	0xbeba0e8a	-0.36339217
205	0x3eccb52d	0.39981976
206	0xbd88fea1	-0.066891916
207	0x3d0e439c	0.034732446
208	0x3e4e5473	0.20149402
209	0xbc325079	-0.010883444
210	0x3d0bdc28	0.034145504
211	0x3c8fc487	0.017549766
212	0xbc8ba398	-0.017045781
213	0x3b00a3c3	0.001962886
214	0xbcb8eebf	-0.02257478
215	0xbf052e0e	-0.520234
216	0xbf8f9a68	-1.1218996
217	0x3cd0a43c	0.025468938
218	0xbcbb14bc	-0.022837035
219	0xbca740a2	-0.020416562
220	0xbcc48c82	-0.02399278
221	0xbd7129fe	-0.058877937
222	0xbd0908d4	-0.033455685
223	0xbdb4c676	-0.08826916
224	0x3eb92077	0.3615758
225	0x3ed9b033	0.42517242
226	0x3d4f0b74	0.050548032
227	0xbcdeb721	-0.027186932
228	0x3c98be86	0.018645536
229	0x3edaa51b	0.4270409
230	0x3d6f137f	0.058368202
231	0xbf360ee1	-0.71116453
232	0xbc4f7f23	-0.012664589
233	0x3d4327d8	0.04764542
234	0x3ce01e98	0.027358338
235	0xbedf57a2	-0.43621546
236	0xbe47dd37	-0.1951798
237	0xbf0dd0e5	-0.5539687
238	0x3bdd709e	0.00675781
239	0xbd8abc7e	-0.06774233
240	0x3cf37627	0.029719425
241	0xbf3d6da7	-0.7399544
242	0x3b11dac3	0.0022255636
243	0x3ae04934	0.001711166
244	0xbf1a43a8	-0.60259485
245	0xbeefca21	-0.468339
246	0xbe28736d	-0.16450281
247	0x3ca6bcc6	0.020353686
248	0xbcea8a4f	-0.028630404
249	0x3f24fb0e	0.6444558
250	0xbef23f87	-0.47314093
251	0x3ad1f2de	0.0016017815
252	0x3e8c3722	0.27385813
253	0x3d296122	0.0413524
254	0xbc511ffc	-0.012763973
255	0x3cc6404a	0.024200577

linear2.bias f4 [3]
0	0x3fa9f205	1.3276983
1	0xbf0358e9	-0.5130754
2	0xbf626591	-0.8843623
