model_random.pth (torch, 17216 bytes, 4 tensors)

linear1.weight f4 [256, 11]
000000 7e c3 26 bf 44 8f c0 3d 88 56 7f 3d e3 34 1a bf
       -0.6514205 0.09402326 0.062338382 -0.6023695
000010 36 44 08 3f 00 80 a5 3e ff 35 0b bf fc a4 a2 3e
       0.5322908 0.3232422 -0.54379267 0.31766498
000020 2d c5 3f bf cb 8f 69 be 8b 61 f1 be 34 ba 33 bf
       -0.7491024 -0.22808759 -0.47144732 -0.70206
000030 a9 dd 41 3d 38 21 2f be a1 95 6a 3d 4f 3f 9f be
       0.047330532 -0.17102516 0.057271603 -0.31102988
000040 59 96 d8 be 45 41 1d 3e ba 71 8c bf 77 84 37 bf
       -0.42302206 0.1535693 -1.0972207 -0.716865
000050 95 57 f3 3e 72 6e 01 bf fb 94 95 bf 61 74 12 bf
       0.47527757 -0.5055915 -1.168609 -0.5720883
000060 c0 f5 54 bf 5d 61 bf be 0a e7 a2 3e 61 9e 1e be
       -0.83187485 -0.3737897 0.31816894 -0.15490104
000070 7e de cc be a6 ec 69 3e 30 1f 45 bf 20 88 7a 3e
       -0.40013498 0.2284418 -0.77000713 0.2446599
000080 10 01 79 3e ce ae 65 bf 81 86 78 3d 39 bc aa be
       0.24316812 -0.89719856 0.060675148 -0.33346727
000090 17 d2 ec be e9 33 e7 be a1 cc ec 3c 17 7d d7 3e
       -0.46254036 -0.45156792 0.028906168 0.42087623
0000a0 32 d8 65 bf 5c 00 16 bf 37 9a 6e be 9c 72 c9 3e
       -0.8978301 -0.585943 -0.23301016 0.39345253
0000b0 b0 b3 3f bc 3c 1c 6f be ae 88 07 be 0c d9 0b 3e
       -0.011700556 -0.23350614 -0.13235733 0.13657016
0000c0 e5 47 bf bd 0f 3e 89 3d 7f 0f 03 be 93 ee bd 3c
       -0.09339885 0.0670129 -0.1279888 0.02318505
0000d0 ac f9 b8 3d 7e 7d e7 3d 79 07 26 3e cd cc 9c 3e
       0.09031996 0.113032326 0.16213788 0.30625
0000e0 b1 24 ab bd 52 77 b4 bd 47 68 62 be 11 81 d4 3e
       -0.08356608 -0.08811821 -0.22110091 0.4150472
0000f0 be ae 23 bd b9 d2 8b bd 10 99 c2 3d b0 40 0b bf
       -0.03996157 -0.068273015 0.095018506 -0.5439558
000100 a0 b5 59 3e 3b e4 0c 3b cf e7 32 3f 52 d1 67 be
       0.2126069 0.002149834 0.6988496 -0.22638443
000110 65 12 01 3d 10 6e 92 be b2 56 a7 be e8 60 d2 be
       0.031511683 -0.28599596 -0.3268333 -0.4108956
000120 c8 ff 88 be be 5c 6f 3f d1 67 58 3f 09 0e 83 3f
       -0.26757646 0.9350089 0.8453341 1.0238658
000130 e8 a0 5a 3f a1 ef 37 be 04 17 1f be 98 f3 34 be
       0.85401773 -0.17962505 -0.15536124 -0.17671049
000140 0b d2 01 3d d7 f6 bf bd a1 90 10 bd 92 0b 27 3e
       0.031694453 -0.09373253 -0.03529418 0.16313007
000150 11 6a cc be d7 8f 2f be 23 48 a1 be 89 21 87 be
       -0.39924672 -0.17144714 -0.31500348 -0.26392773
000160 35 78 1d 3e a4 8a c5 be 42 9b 82 bd 15 f4 a0 be
       0.15377887 -0.38582337 -0.06377269 -0.3143622
000170 37 c9 07 3f ae c8 39 be 9c 60 41 3e 31 68 17 be
       0.53041404 -0.1814296 0.1888451 -0.1478584
000180 0d 57 2b bf 88 32 54 3e f4 b2 de be 1a 8c 94 bf
       -0.66929704 0.20722401 -0.43495905 -1.1605256
000190 24 c4 6b be 1a 7a bb be 4b c3 1c 3e 67 3b 03 bf
       -0.2302404 -0.36616594 0.15308873 -0.51262516
0001a0 ca 81 f1 be 36 38 16 3f 2b 61 55 bf 1b db 3f be
       -0.47169334 0.5867952 -0.8335139 -0.18735926
0001b0 2c 98 45 bf 34 1d d2 3e 4e b4 86 bf 2e af a7 bc
       -0.7718532 0.41037905 -1.0523775 -0.020469274
0001c0 10 ff 2a be 22 a0 f6 be 09 80 ea be 1d 15 e4 bd
       -0.16698861 -0.48169047 -0.45800808 -0.111368395
0001d0 da f8 0b 3f 54 d8 8c bf f6 39 32 bf cb a2 11 bf
       0.5467659 -1.1003518 -0.6961969 -0.5688903
0001e0 93 d9 e1 3e 51 22 b6 be 59 05 dd 3e ef 44 76 bf
       0.44111308 -0.35573056 0.43168142 -0.96198934
0001f0 fc 96 91 be 2c b2 d6 be cf 97 17 3f dc 0e 80 bf
       -0.28435504 -0.4193281 0.59216017 -1.0004535
000200 5e 5c 0b bf 56 49 84 bf ae e0 2f 3f 24 16 ae be
       -0.54437816 -1.033488 0.6870221 -0.34001267
000210 d4 ac 0f 3f 3e 53 8d bf 96 52 c8 3e f9 e2 00 3f
       0.5612309 -1.1041028 0.39125508 0.5034633
000220 bb 35 a9 3e b8 aa 96 be b2 e6 92 3e 90 38 a6 3e
       0.33048806 -0.29427123 0.28691632 0.3246503
000230 08 b5 a3 be be 8b e1 3d ab be 66 3e 58 3d 04 be
       -0.31974053 0.11012982 0.22533672 -0.12914026
000240 2b c0 02 bf 39 b3 b1 be 74 08 31 be ca 80 a8 bd
       -0.51074475 -0.3470705 -0.17288381 -0.082276896
000250 6b 12 84 be 9c 97 17 bf ec 94 9a 3f 67 4c 70 3f
       -0.25795302 -0.5921571 1.2076697 0.9386658
000260 d6 5d 89 3f 43 1d 2a 3f 1b 22 8b 3d b2 7b 0f be
       1.0731761 0.664509 0.067936145 -0.1401203
000270 3b 74 ef 3d 3f 5b 27 3b 03 e3 8d bd 05 3b ad bd
       0.11692091 0.0025536565 -0.06928065 -0.08458523
000280 ec 2d 7b be 26 cc a7 bd 76 c8 2f be f6 a1 6e 3c
       -0.24529237 -0.08193235 -0.17166314 0.014564982
000290 75 34 a6 3d f9 93 1c be 9a 55 1a be 6d 2e 69 3e
       0.08115474 -0.15290822 -0.15071717 0.22771616
0002a0 64 6b 05 be 04 b9 e0 bd 85 ce 97 bd e6 62 70 be
       -0.13029248 -0.10972789 -0.07412437 -0.23475227
0002b0 2c 19 17 be e7 4c c1 3d 09 70 c3 3c 7f ec d1 bc
       -0.14755696 0.09438496 0.023857133 -0.025625465
0002c0 ab 6b 64 be 9d 5f 91 bd 97 64 12 be 29 39 67 3d
       -0.22306697 -0.07098315 -0.14296184 0.056450997
0002d0 40 e4 c5 be 46 47 47 be 59 5c ad be 5b 4f 00 3e
       -0.38650703 -0.19460782 -0.33859518 0.12530272
0002e0 64 10 31 be 08 75 b9 be e1 f0 d0 be 9c 9c ae 3d
       -0.17291409 -0.362221 -0.40808776 0.085259646
0002f0 92 eb 43 3e e4 c1 76 bd 86 3d ef 3e e3 b8 de bd
       0.19132832 -0.060243502 0.46726626 -0.10875108
000300 7f 9e 0d be f5 09 1b 3f 7f 68 8d bf aa 8b 88 bf
       -0.13829993 0.6056207 -1.1047515 -1.0667622
000310 d6 d7 c6 3e 53 16 b8 be f7 bd 90 be 5b 81 c2 3e
       0.38836545 -0.35954532 -0.28269932 0.37989315
000320 24 c6 27 bf 46 99 c1 bd 49 c3 b9 be 8d f7 5c be
       -0.65536714 -0.09453063 -0.36281803 -0.21578808
000330 5c 12 02 3f 0d 54 57 bf 68 9c dc 3e 67 3f a9 3d
       0.50809264 -0.84112626 0.43088078 0.08264046
000340 cd cd 6a bf 24 18 d2 bc 2d 04 78 bd 18 79 d2 bd
       -0.9172028 -0.025646277 -0.060550857 -0.10277003
000350 28 e5 58 bd f0 41 f6 3c 28 3a e4 bd f1 3a 1f 3e
       -0.052952915 0.030060738 -0.11143905 0.15549828
000360 66 61 7d bc dd 59 dd 3d 45 8b 1b 3c 35 ce b1 bd
       -0.015465116 0.10808156 0.009493654 -0.08681909
000370 46 a1 3c be 13 48 20 bf 62 b1 54 bf c2 bc 0d be
       -0.18420896 -0.62609977 -0.83083165 -0.13841537
000380 05 c5 65 bf 89 5a 0c 3e d0 fc 8c bf 94 9d 36 3e
       -0.8975375 0.13706411 -1.1014652 0.17833549
000390 28 f8 4e 3f 23 16 82 bd 18 b6 65 3f 38 8f 76 be
       0.80847406 -0.063518785 0.8973098 -0.24078071
0003a0 69 ba 6c 3e ad 97 d2 bd d4 40 f1 3d f2 1b 21 bf
       0.23117985 -0.10282836 0.11779943 -0.62933266
0003b0 cf 80 4f 3d 8e 86 ad 3e 28 22 eb be 84 ba f3 3e
       0.05065995 0.3389172 -0.45924497 0.47603238
0003c0 d5 7b 84 be 45 0c 26 bf 5a 91 0c bf ea 24 42 be
       -0.25875726 -0.6486247 -0.5490929 -0.18959394
0003d0 b7 a9 de be 0c 56 0d bf 7d 16 03 bf 50 f5 8e be
       -0.43488857 -0.5520942 -0.5120619 -0.27921534
0003e0 3e 98 24 bf bb 40 90 3e 71 43 f3 3e 23 46 d5 3e
       -0.64294803 0.28174385 0.4751239 0.41655073
0003f0 19 a6 a9 3e d9 83 45 bf bd 4b f4 be da 8e 44 bf
       0.33134535 -0.7715431 -0.47714034 -0.76780474

linear1.bias f4 [256]
000000 bc 1c bc bd b1 de c5 3d af 96 8b be b2 ff 49 be
       -0.09185168 0.09661616 -0.272634 -0.19726446
000010 ee 73 c7 be d0 06 e1 be 7b 39 20 bf bf 4a 85 bd
       -0.38955635 -0.4395051 -0.6258771 -0.06508397
000020 7e 4c 57 be 3e b8 f9 3c 2c 69 2d be 19 a9 9a 3e
       -0.21025273 0.030483361 -0.16934651 0.30207136
000030 c4 c1 0f bf ca e4 0c bf d1 b7 bf be 4f 7e 8e be
       -0.5615504 -0.55036604 -0.37444928 -0.2783074
000040 7f fd 47 be fd 73 a2 be a6 6d 13 be 5c 38 91 be
       -0.19530295 -0.31729117 -0.14397296 -0.2836331
000050 86 c1 9b bd 39 93 90 bd 4d b6 1e bf b5 b2 fe bd
       -0.07605271 -0.070593305 -0.6199692 -0.124364294
000060 2d 72 6f bf 25 8e 5e bc d2 4d 63 be a9 fc cd be
       -0.93533593 -0.013583695 -0.22197655 -0.40231827
000070 71 ea 92 be ab 11 b7 be 55 0c 92 3d 2b 19 8b be
       -0.2869449 -0.35755667 0.071312584 -0.2716764
000080 1e 6c 02 3d 1e 9f 87 be f0 eb a6 be e0 e3 32 bf
       0.03184139 -0.26488584 -0.3260188 -0.6987896
000090 06 89 96 be 8b d7 38 be 42 3e 0c bf 91 e3 36 bd
       -0.29401416 -0.18050973 -0.547825 -0.044650618
0000a0 8b 7e b0 be 96 fa 91 3d 15 1f 9c 3e 7a 32 4b be
       -0.34471545 0.071278736 0.30492464 -0.19843474
0000b0 0d 07 8d be 4a c5 18 be bb 05 c6 bd 6b d5 20 bf
       -0.27544442 -0.1491901 -0.09669062 -0.6282565
0000c0 ec 0b c8 be 52 d4 94 be df f8 df be 19 99 fb bd
       -0.39071596 -0.29068238 -0.4374456 -0.122850604
0000d0 dc 8f a4 be 4c 48 48 be 47 b3 ec be d6 ac fc be
       -0.32141006 -0.19558829 -0.46230528 -0.49350613
0000e0 2f 2a 0b be 5c 15 51 be 45 6f ca be da 05 0e 3f
       -0.1359031 -0.20418304 -0.39538017 0.5547768
0000f0 38 c8 97 be 06 30 92 be 83 1a d6 bd a1 cf ad ba
       -0.29644942 -0.28552264 -0.104542755 -0.0013260731
000100 6a 7f 28 be f3 dd c5 bd e6 01 4c be ac 4e a5 be
       -0.16454855 -0.09661474 -0.19922599 -0.32286584
000110 b5 19 8d 3e 13 1f ae be 55 91 81 bc fd 2a 23 be
       0.27558675 -0.34008083 -0.01581637 -0.15934367
000120 34 f2 ce be b3 c3 b9 be 89 94 f9 be 22 ea ad be
       -0.4041916 -0.3628212 -0.48746136 -0.33967692
000130 c6 d5 98 be 9d 84 62 be 7f b1 9b be 33 aa d1 be
       -0.29850596 -0.221209 -0.30408856 -0.40950164
000140 35 39 c6 be ed 6e 88 be fe 08 f5 be d6 a9 58 be
       -0.3871552 -0.2664713 -0.47858423 -0.21158537
000150 30 11 8f be de e3 ab be 19 67 8f 3d 6b 67 be bd
       -0.279428 -0.33572286 0.07002086 -0.09297069
000160 10 26 62 be 2b 90 9c be ce 13 de be 2e 45 b3 be
       -0.22084832 -0.3057874 -0.43374485 -0.35013717
000170 94 7e 05 be 8b 04 ca be 44 6a 5a be 0b 11 10 bf
       -0.13036567 -0.3945659 -0.213296 -0.56276006
000180 57 8a 81 bd 62 cd 14 bf 06 e7 b4 be 70 ee 05 be
       -0.06325214 -0.5812589 -0.35332507 -0.13079238
000190 02 45 0d be 3a 27 96 be de 3d 97 be 37 0a c7 3e
       -0.13795856 -0.29326802 -0.29539388 0.3887498
0001a0 15 72 db be 5e ab fc 3c 60 d3 6b be ca 4e 21 3d
       -0.42860475 0.030843433 -0.23029852 0.03938178
0001b0 e1 1f 0c bd ad 70 37 be 58 4e 81 bd e4 96 a5 be
       -0.03421009 -0.17914076 -0.06313771 -0.32341683
0001c0 65 8a f6 bd ce 0a 1f bf fc 0b d8 be c7 c9 f3 bd
       -0.120381154 -0.6212586 -0.42196643 -0.1190372
0001d0 8e 89 98 be 59 36 07 bf a2 c3 7e 3e fa 10 0e bf
       -0.29792446 -0.528173 0.24879315 -0.55494654
0001e0 67 5d 24 bf 17 77 83 be d3 00 24 bf 22 7b 03 bf
       -0.6420502 -0.25676796 -0.6406376 -0.5135976
0001f0 1c 7d 49 3d 7d 29 de be 21 44 74 be a7 8a 9a 3e
       0.04919158 -0.43391028 -0.23854114 0.30183908
000200 4c 79 74 bd ed af 3b bf 81 04 86 3d ac 35 ef be
       -0.05968599 -0.73315316 0.06543828 -0.46720636
000210 ee c2 a2 be bb c4 01 bf 84 d0 0d bf 85 2d 9d be
       -0.31789345 -0.5069081 -0.55396295 -0.3069879
000220 47 04 bc 3c 70 ad 80 be 16 b6 03 be 98 00 14 be
       0.022951258 -0.25132322 -0.12862429 -0.14453351
000230 96 3e 81 be 41 a2 48 bd 02 7a d6 be 0b a5 fd bd
       -0.25243062 -0.048982862 -0.4188996 -0.12384995
000240 c6 31 0b be 74 e9 fc 3e a6 48 0f 3d e4 10 6a be
       -0.13593206 0.4939686 0.034981392 -0.22858006
000250 f8 be 22 bf 2d d7 c6 3b d3 bb c3 be 13 db ea be
       -0.63572645 0.0060681314 -0.38229236 -0.45870265
000260 31 32 b8 be f8 66 f2 bd 55 7d a7 bd a2 16 4a 3d
       -0.35975793 -0.11836046 -0.08178202 0.04933799
000270 ea f9 c5 be 71 f7 9c 3d c2 de a1 bc 86 cc 7a be
       -0.38667232 0.07664383 -0.01975954 -0.24492082
000280 47 bd dc be a3 47 68 bf 5a 5c 39 be f5 58 a3 be
       -0.43113157 -0.9073431 -0.18101636 -0.31903806
000290 33 6d 17 3e 8a 0a 42 bd 6e 89 12 bf 4f 7d 07 bf
       0.1478775 -0.047373332 -0.5724095 -0.5292558
0002a0 78 4e 0e 3d 6b 47 7f be 2d 32 10 bf c7 99 85 3e
       0.034742802 -0.24929588 -0.5632656 0.26093885
0002b0 a2 80 79 be 4d 30 7a be eb cc 05 be 96 72 6c be
       -0.24365476 -0.24432488 -0.13066451 -0.23090586
0002c0 02 53 96 3e 7e bb b3 be bb 00 c4 be 40 d5 ec be
       0.29360205 -0.35103983 -0.38281807 -0.46256447
0002d0 78 de e1 3d 34 57 a1 be a6 85 7f be ff 4b 9f be
       0.11028761 -0.31511843 -0.24953327 -0.31112668
0002e0 d1 33 0e bf 3b b2 61 bf 43 78 13 3c f6 26 b0 be
       -0.55547816 -0.88162583 0.009000841 -0.34404725
0002f0 c5 34 24 bf b8 9f 8a be 38 a3 44 be a5 f4 9e 3e
       -0.6414302 -0.2707498 -0.19202888 0.31046024
000300 d1 22 0c bf ea 48 36 bf 49 c9 59 bd 3e da ca 3e
       -0.54740626 -0.7120501 -0.053170476 0.3961963
000310 06 c0 32 be 6c 2f 24 be 36 6a bf be c7 23 e3 be
       -0.17456064 -0.16033715 -0.3738572 -0.44363233
000320 0a 58 be be 61 8a bf bd 7c ca 89 be 61 2f d6 be
       -0.37176543 -0.093525656 -0.26912296 -0.41833022
000330 98 2d d1 be e8 b6 05 be 29 97 8f bc 89 2c 15 be
       -0.40855098 -0.13058054 -0.017528133 -0.1456777
000340 c2 b9 3b bf 6d a9 2d be ad 22 ac be 4b 91 f9 be
       -0.7333032 -0.16959162 -0.33620206 -0.48743662
000350 50 59 24 be d0 b6 bd be 67 ec d3 be 74 16 32 be
       -0.16049695 -0.37053537 -0.41391298 -0.17391378
000360 70 6b 5c be 27 6c f9 bc eb 9c 71 bd 24 7c b7 bd
       -0.21525359 -0.030447079 -0.05898754 -0.08959225
000370 2b d1 c8 be 8f 87 38 be 15 16 94 be 56 68 80 be
       -0.39222082 -0.18020461 -0.28923097 -0.25079602
000380 7c 88 c4 be c9 b6 8b be f5 ba a6 be ee e8 21 bd
       -0.3838538 -0.27287892 -0.32564512 -0.03952878
000390 f3 8b ac be 7f 24 b4 be 06 e5 a7 be 22 3e 48 be
       -0.33700523 -0.35184094 -0.3279192 -0.19554952
0003a0 d9 b5 56 be d1 9f 8e be 95 d0 8e be 90 0a bc be
       -0.20967807 -0.27856305 -0.2789351 -0.3672681
0003b0 cf d7 ad 3e 6a ca c3 be f5 63 09 be d8 5f 9b be
       0.3395371 -0.38240367 -0.13417037 -0.3034656
0003c0 7b 91 46 be d0 c3 d2 be bb 46 0b be 38 a7 b7 be
       -0.19391434 -0.41165018 -0.136012 -0.35869765
0003d0 b5 9f 0d 3e f2 fb 0e be 39 bb 45 be 94 ad 4c 3c
       0.13830455 -0.13963297 -0.19309701 0.012492556
0003e0 3f 85 c2 be 87 61 8b be 00 5f 94 3d e9 da 2d bf
       -0.37992284 -0.27222845 0.07244682 -0.67912155
0003f0 53 c5 17 be 76 2c 80 be 35 0b 0c bf 99 17 dd 3e
       -0.14821367 -0.2503392 -0.547046 0.43182066

linear2.weight f4 [3, 256]
000000 bd db 59 be 25 c1 bd bf 0d 88 50 3e 68 4a b8 3e
       -0.2127523 -1.4824568 0.20364399 0.35994267
000010 d7 10 34 3d 70 dd 9c 3e 40 f5 c5 be cd 3e f9 3b
       0.043961372 0.30637693 -0.38663673 0.0076063634
000020 1b 20 27 3f b6 b2 a0 3e d6 58 25 3f 00 90 0b 3f
       0.65283364 0.31386346 0.6458868 0.545166
000030 76 30 00 3f d6 b5 7d be 0b 6e d5 3c ae d7 cd 3d
       0.50073946 -0.24776396 0.02605345 0.10050903
000040 18 f7 82 3e e8 ad 26 bf 44 cc 27 3d 04 c9 33 bd
       0.25579143 -0.6510911 0.040966287 -0.043892875
000050 62 f0 3d be 26 25 c8 be 30 bf db 3c a9 75 26 3e
       -0.1854873 -0.39090842 0.026824564 0.16255821
000060 82 cb 89 3e a4 0f 9e 3e c1 b7 0d 3e af 44 50 3e
       0.26913077 0.30871308 0.13839628 0.203387
000070 24 02 37 be 56 c0 0d bf 28 77 83 3e 8c b1 ce be
       -0.1787191 -0.55371606 0.25676847 -0.40369833
000080 f3 ab 06 bf a3 e2 49 bd 30 99 09 3e 94 d5 23 be
       -0.52606124 -0.049288403 0.13437343 -0.15999442
000090 c1 2c b3 bc 33 e0 90 bd a3 77 1f 3d f1 22 23 3d
       -0.021871926 -0.070740126 0.038932454 0.039828245
0000a0 42 47 1e bb 41 70 05 3f 4b a7 43 3e 22 23 b1 bd
       -0.002415136 0.5212441 0.19106786 -0.08649279
0000b0 a7 3a bd 3c 0e af 13 bf 59 0e 91 bc 06 df 4a be
       0.023099257 -0.5768899 -0.017707037 -0.19811639
0000c0 51 01 61 be 29 3c 19 3d aa 61 1a bf 0b d2 d1 3e
       -0.21973158 0.03741089 -0.60305274 0.40980563
0000d0 b0 62 c4 bb f0 c3 01 3e ed eb ab be a4 4b ac be
       -0.00599321 0.126724 -0.33578435 -0.3365146
0000e0 60 85 4b bd 0e 92 56 bd 90 88 c6 3b c4 52 2e 3f
       -0.049687743 -0.052385382 0.00605876 0.6809504
0000f0 e6 3e 88 be 47 07 81 3d 9d b2 80 bd 10 8b 28 3e
       -0.26610488 0.06300216 -0.06284068 0.16459298
000100 49 cb 0c bf 72 e8 89 bd ee 92 e1 be 49 5a 90 bd
       -0.5499769 -0.067337885 -0.4405741 -0.070484705
000110 71 00 f4 3e 92 7e 7c 3e 55 eb 9c be ee a1 fc 3e
       0.47656587 0.24657658 -0.30648294 0.49342293
000120 61 3a 35 bf 46 ee a7 3a fc 65 32 3f 38 51 be 3c
       -0.70792204 0.00128121 0.69686866 0.023232087
000130 78 2c 30 be fb cd e3 3e 60 39 55 be 28 62 38 3e
       -0.17204463 0.44493088 -0.20822668 0.18006194
000140 c6 ee d0 bb 45 e5 f8 bb d7 ff ea 3b 8e 1f b7 be
       -0.0063761203 -0.0075956904 0.007171612 -0.35766262
000150 a7 39 6a be 72 89 7a 3d 99 be f9 3e 86 1b 33 3e
       -0.22873555 0.061166234 0.48778227 0.17490968
000160 30 1e d2 bb b3 b1 65 bc 8a e5 1f bc c2 d7 bd 3d
       -0.00641229 -0.014019418 -0.009759316 0.09269668
000170 dc 27 13 bd 05 ec ec 3e bc 84 d8 3e 5f 75 f3 bd
       -0.035926685 0.4627382 0.42288768 -0.11887621
000180 fe 60 5c 3e 1e a8 1d 3e 7a f9 d0 3e 9d 00 36 bd
       0.21521375 0.15396163 0.40815336 -0.04443418
000190 7a 47 43 39 72 af b2 be 4a 93 86 bd 1c bc e2 3e
       0.00018623276 -0.3489948 -0.06571062 0.4428414
0001a0 a0 65 54 bd 70 13 bb 3e b9 5f 0e bf 03 e8 5b 3e
       -0.05185473 0.36538267 -0.5561481 0.21475224
0001b0 2e 98 fb bc 99 70 f6 bb d8 10 a2 bc db 4f 59 3e
       -0.030712213 -0.007520747 -0.019783422 0.21221869
0001c0 c8 2f 2c 3a c2 4c b5 be 07 2f 23 be d4 06 97 bc
       0.0006568399 -0.35410124 -0.15935908 -0.018435873
0001d0 35 e8 8f bd 5a c9 9e bd c9 a2 f7 3e 1a c1 9f 3e
       -0.07026712 -0.077532485 0.48366383 0.31202012
0001e0 f2 30 52 be b2 72 b0 be 97 02 1d 3e 08 f1 7c 3d
       -0.20526484 -0.34462506 0.15333019 0.061753303
0001f0 5f 80 8f be 2d d8 90 3e 6f 20 51 be a7 7d 8e 3d
       -0.28027627 0.2828993 -0.20422529 0.0695756
000200 8c 9d 38 3e 74 ab 42 3e 91 4b f9 3e 76 2e bd bd
       0.1802885 0.19010717 0.48690465 -0.09237377
000210 f2 e3 7b 3b 6f 37 1e be 54 90 31 be 1e 25 ee 3e
       0.0038435427 -0.15450834 -0.17340213 0.46512693
000220 d7 c7 2b 3e 38 3f 32 bc b6 a2 42 bb 05 41 9d bc
       0.16775452 -0.01087933 -0.0029699034 -0.019196043
000230 b1 19 9e bc 18 80 0d 3e 28 d3 00 3f 26 1f a7 bd
       -0.01929936 0.13818395 0.503222 -0.08160238
000240 52 95 8f be 34 9d d9 3e 3f 9a dd bb 07 45 ae be
       -0.2804361 0.4250275 -0.0067627723 -0.3403704
000250 01 3c df be f6 93 67 3e 62 1b 39 bf 46 df 91 be
       -0.43600467 0.22615036 -0.7230741 -0.28490657
000260 41 16 d9 be 84 bd 05 3f 07 c3 1f bc 46 e0 01 3c
       -0.4239979 0.522423 -0.009751088 0.007927006
000270 52 e9 de 3e 9c 54 9a bb dc de d3 3d 3a 9d d4 3c
       0.43537384 -0.0047097933 0.103452414 0.025953878
000280 f3 f8 b2 be fe 12 ac 3d e0 28 97 3e d4 63 ef bd
       -0.34955558 0.0840206 0.29523373 -0.116889626
000290 3d f5 ec 3e 22 c5 45 3e c0 cf 2c be b8 e0 3b be
       0.46280852 0.19313481 -0.16876125 -0.18347442
0002a0 31 de f9 bd 2d af b5 be ca 4c 32 3e f4 8d 0c 3f
       -0.12200583 -0.3548521 0.17412105 0.54904103
0002b0 b1 70 f2 3c 23 44 4b be 99 53 7f 3c 27 6e c3 3c
       0.029594751 -0.19850211 0.015583896 0.023856236
0002c0 b1 c0 20 3f cf 2c 00 3c ae 01 d2 3c 8b a2 30 3f
       0.62794024 0.007823183 0.025635567 0.6899802
0002d0 01 76 1e 3f 2b 10 89 be 7c 39 27 bf c8 b7 3c 3d
       0.6189881 -0.26770148 -0.6532209 0.046073705
0002e0 e5 de 91 3d 96 09 ab be 01 a6 8e be a6 2b c6 3b
       0.07122592 -0.3340575 -0.27861026 0.006047684
0002f0 ac 11 1e 3e 43 0e d5 bb c4 ec 8a 3e 86 4f 8a 3e
       0.15436429 -0.0065019443 0.27133763 0.27013797
000300 b0 3d de bd b0 f2 a6 3d de c5 4e 3d 3d f8 22 bd
       -0.1085161 0.08151758 0.05048167 -0.03978752
000310 8f d6 eb 3d a0 42 cf 3e 59 14 f3 bc 43 91 6a 3c
       0.11515533 0.40480518 -0.029672788 0.01431686
000320 94 e3 10 bb ad 5e 80 bf d1 98 ee 3c bb ca 65 3e
       -0.0022108303 -1.0028893 0.029125603 0.22440617
000330 c1 12 98 3b 23 89 c4 bf 7b d5 38 3d d2 71 82 3b
       0.0046409075 -1.5354351 0.045125466 0.0039808536
000340 23 48 03 3f 98 f0 70 3d 8c e5 ba 3b 54 1e f5 bb
       0.51281947 0.058823198 0.0057036337 -0.007480422
000350 fd 64 00 bf 35 17 16 bd 18 74 56 bc 8a 6a 3f 3c
       -0.50154096 -0.036643226 -0.013089202 0.011683116
000360 74 9f 18 3e 6b 79 0e 3c 49 d1 69 3e c6 c5 f2 3d
       0.14904577 0.0086959405 0.22833742 0.118541285
000370 17 3c 89 be 6b 3e 2a 3b c7 68 14 3e 51 2a 35 bf
       -0.26803657 0.0025977145 0.14493094 -0.70767695
000380 8d f8 43 bd a5 9d d1 bd 41 41 94 be 9f 85 19 bf
       -0.04784446 -0.102351464 -0.28956035 -0.59969515
000390 f7 45 f9 bc 11 5d 44 3d 9c 87 0d bc 0c b7 e9 3c
       -0.03042887 0.047940318 -0.008638289 0.028529666
0003a0 61 d9 f8 be 92 42 7e 3d c1 99 7d 3d 0b b3 44 3c
       -0.48603347 0.062075205 0.06191421 0.012005578
0003b0 0d 77 af 3e 17 9e e7 3c de b5 5e bd c3 79 04 bd
       0.34270516 0.028273625 -0.05437266 -0.032342684
0003c0 9c 17 df be cf 1c 90 be 01 f0 43 3e e3 46 ba 3b
       -0.435727 -0.2814698 0.19134523 0.00568472
0003d0 26 03 45 3e e4 99 b0 bc b9 4e 81 bd 2f 07 15 bf
       0.19239482 -0.021557756 -0.06313843 -0.58214086
0003e0 09 44 62 be d4 0c 6f 3c ba cf 1e 3f be a7 cc bc
       -0.22096266 0.014590461 0.62035716 -0.02498233
0003f0 1d 68 2f bf e8 bd 25 bc 5c 27 02 3c bc 46 c3 3e
       -0.6851824 -0.010116078 0.007943954 0.38139904

linear2.bias f4 [3]
000000 0d b7 ce 3e dc 5f 8d be 0d 23 06 bf
       0.40374032 -0.27612197 -0.52397233
