snake_dqn.pth (torch, 23388 bytes, 6 tensors)

fc1.weight f4 [64, 12]
00000000: a6a7 643e 5b5d 58be dbaa 723f b23a 78be
00000010: 19be 5dbf ffe3 043f 92ec c4be 4246 61bf
00000020: e313 56be 7d4a 43bf cf61 d0be 42bc d5bd
00000030: b69b 9dbe 2222 92be b4be 743f 6dc5 0fbe
00000040: 4ad5 edbd 9ebb 6fbf 706a cdbd 3aa4 0fbe
00000050: 956b 31bf bb5f 3e3d 0dc1 313f b079 a6be
00000060: 058c a73e a923 6f3f 723f 8a3e 9010 3bbe
00000070: 0519 74be 0520 89bf 998b 08be d142 9d3e
00000080: 2932 953e af08 24bf c006 84bf b913 d3bd
00000090: 8481 313d b3da 88bd 7445 543e 74c6 c6be
000000a0: 3a6f 88be 4678 2abe 95d9 9b3d f288 073c
000000b0: 7f03 09bf 0f3d ccbe eb1a 82bc c953 4cbd
000000c0: 7aaf f1be 247b 97bf 5aad 193f 289f 0c3f
000000d0: 9632 2fbf dcce 57bf 8e4c 793e ccfe a73d
000000e0: ea90 d23e b677 e23d ece5 14bf d74e 97bf
000000f0: a42c 933e 9535 4d3c d16e 00bf 4c83 d83e
00000100: 34ae 69bf 9c4f 403e ca3c 52be 2d02 323c
00000110: 0335 1dbf e72b 19bf d087 e3bd ba9b 8bbf
00000120: d940 763d 8f5a f03e fe0d f23e bc7c e93e
00000130: 1644 95be 7ba5 c1bd 887a d5bd d795 15bf
00000140: 1087 623e d719 603c 8f11 c53e d283 7e3e
00000150: c8ea 4abf a08d 17be 65eb 2d3e 2755 063e
00000160: fb34 0fbf 8ea4 e2be 6422 503e c817 323f
00000170: aee1 823d fb6c cbbe 1c84 f3bf b7b1 67bf
00000180: a640 a1bd 8e23 233f 80cb d03e 1b4d e03e
00000190: ae67 35bf 6648 13bd 7cb8 63be 098b 7f3d
000001a0: c0f7 a8be 5b40 073f d4cb d1be 05dc 943e
000001b0: f245 efbe 4926 3fbe a5a6 853b c730 a3be
000001c0: b5c3 cb3e 9455 053e 336e 0e3e 5469 983e
000001d0: 31f5 49bf 0591 d9be be04 703e ff98 15bf
000001e0: ba86 183f 80c3 5ebe 1085 5b3f 310f 143f
000001f0: 948b 3ebd b7b9 80bf 8ecc debe 2ad9 90be
00000200: 0e6b b7be 2a73 b63e 2a59 df3e c686 8c3d
00000210: d6cd 883e f544 45bf d8bb b13d 201d a0be
00000220: 418a b93e 9478 82be f5b5 83bf 6f7f 35be
00000230: 35fd eebe bd17 a6bf a780 e33d 83fa 2dbf
00000240: c43f 2b3e 9333 dabc 2b37 57be 9669 d73d
00000250: 1706 fe3d 9c38 213f 203e 203f 5aad 643f
00000260: 35a8 7d3e 8aaf e3bf c686 7cbd 3a07 03c0
00000270: b4e8 e63e 3ca9 103f 88b6 dd3e 9ac3 8ebd
00000280: 40c5 c63d 0041 44bf 8597 35bf 3cc9 533f
00000290: a658 023f 1b52 c8be a65e 583f c895 66bf
000002a0: d164 c13e a0f9 cd3e 9d9e ea3e 7f9c 073e
000002b0: d832 313e 3989 903d d914 063f 1638 72bf
000002c0: 2152 1fbe 1cc9 12bf 8787 93bf 4492 3cbf
000002d0: a5c0 8bbe 9ae5 e3bd 200f dcbe a00b b03d
000002e0: 845b 6f3e 429c 0b3e d68b 723e 37f7 0cbf
000002f0: 3772 95bd 0788 6cbe 0308 e53d f82e 923e
00000300: 31b9 d3be 8953 4abf 13b0 a63d 0e95 20bf
00000310: 47aa d4be aa14 043f 3f3f 083e 9fe6 5dbe
00000320: b535 b33e 6bcb 353f 45a5 353f 6488 8f3c
00000330: c5af 333e 9e30 003f 9183 273f 6598 8abf
00000340: 1a12 0cbf 60ba 173c 7dbf 393e 9349 a1bf
00000350: 6a1f f03d b985 ba3d 9848 20bf a895 97bf
00000360: f171 16bf 697f 753e 508f 67bf adb1 8e3f
00000370: 9d03 2c3f 44fa abbf fa7c d1bf ab90 5abf
00000380: cb4b 9e3e c9b9 48be da20 a53e 3482 4dbd
00000390: aac0 efbe cce0 f93e 491c ba3e 2f91 f0bd
000003a0: 7005 0d3e d922 90bd e6c8 7abf 88b3 8e3e
000003b0: d77a 5ebf 53f0 d23e 18dd dabf b7ef 93bf
000003c0: 63e4 233e 1abd c1bf 4504 78be 58d2 103f
000003d0: c9fb 1ebe 0a89 7c3e 774b abbf a0b6 173f
000003e0: d9b5 debe 3716 4ebe 9c63 c13e 590c 6d3e
000003f0: 45fd 89be 759c 87be 9a34 223f b480 ef3e
0.22329578 -0.21129362 0.94791955 -0.2424114 -0.8661819 0.51910394 -0.3846174 -0.8799783
-0.20906024 -0.76285535 -0.40699622 -0.10436298 -0.3078286 -0.28541666 0.9560349 -0.14040156
-0.11612947 -0.93645656 -0.10030067 -0.14027491 -0.6930478 0.046478014 0.694352 -0.32514715
0.32724014 0.9341379 0.2700153 -0.18268037 -0.23837669 -1.0712897 -0.13334502 0.3071504
0.29139832 -0.6407575 -1.031456 -0.10306496 0.043336406 -0.066823386 0.2072962 -0.38823283
-0.2664736 -0.16647443 0.0760986 0.008272396 -0.5352096 -0.39890334 -0.015881976 -0.04988459
-0.4720419 -1.1834455 0.6003014 0.54930353 -0.68436563 -0.8430002 0.2434561 0.082028955
0.41126186 0.11057989 -0.5816333 -1.1820935 0.28744996 0.012524982 -0.5016909 0.42287672
-0.9128144 0.18780369 -0.20531002 0.010864777 -0.61409014 -0.59832615 -0.111098886 -1.0906899
0.060120437 0.4694409 0.472763 0.45602977 -0.29153508 -0.09455391 -0.104237616 -0.5843176
0.22121835 0.013678036 0.3848996 0.24854973 -0.792645 -0.1480012 0.16984327 0.1311842
-0.55940217 -0.4426617 0.20325619 0.6956754 0.06390701 -0.39731583 -1.9024692 -0.90505546
-0.07873659 0.6372613 0.40780258 0.43808827 -0.7086133 -0.035957716 -0.22238344 0.062388454
-0.33001518 0.52832574 -0.4097582 0.29074112 -0.46733052 -0.18666948 0.0040787035 -0.31873152
0.3979775 0.13020927 0.13909225 0.2976786 -0.7888976 -0.42493454 0.23439309 -0.5843658
0.59580576 -0.21754265 0.8574991 0.5783568 -0.04651983 -1.0056676 -0.43515438 -0.28290683
-0.35823864 0.35634738 0.43622714 0.068616435 0.2671954 -0.77058345 0.086784065 -0.3127222
0.36238292 -0.2548262 -1.0289904 -0.17724393 -0.46677557 -1.2975994 0.11108523 -0.67960376
0.16723543 -0.02663592 -0.21017139 0.10518186 0.12403505 0.62977004 0.62594795 0.89327013
0.24771197 -1.7787945 -0.061651967 -2.047316 0.45099413 0.5650823 0.43303323 -0.06970902
0.09705591 -0.7666168 -0.70934325 0.82728934 0.50916517 -0.39125142 0.8451942 -0.900723
0.3777223 0.4022951 0.45824137 0.13243292 0.17304552 0.07057423 0.5237556 -0.9461683
-0.15558673 -0.5733812 -1.1525735 -0.73660684 -0.27295414 -0.111277774 -0.4298029 0.08595967
0.23374754 0.13633826 0.23686156 -0.5506472 -0.072971754 -0.23098765 0.11183169 0.2855146
-0.41352227 -0.79033715 0.08139052 -0.6272744 -0.4153616 0.5159403 0.13305376 -0.21670006
0.35001913 0.71013516 0.70955306 0.01752109 0.1754752 0.50074184 0.6543513 -1.0827757
-0.5471512 0.009260744 0.18139453 -1.2600578 0.11724742 0.09107537 -0.6261077 -1.1842546
-0.5876761 0.23974384 -0.9045305 1.1147972 0.67193013 -1.343575 -1.6366265 -0.85376996
0.309172 -0.19602121 0.32251626 -0.050173 -0.4682668 0.4880432 0.36349705 -0.117464416
0.13771605 -0.07037897 -0.97962797 0.27871346 -0.8690619 0.41198978 -1.7098722 -1.155753
0.16005091 -1.5135834 -0.24220379 0.5657096 -0.15525736 0.24661651 -1.3382405 0.5926304
-0.43498114 -0.20125662 0.37771308 0.23149242 -0.26951042 -0.26486555 0.63361514 0.4677788

fc1.bias f4 [64]
00000000: ba4b c1be 4013 21bf 2bb7 d1be 493d b8be
00000010: 2bfe 6dbe f532 8e3d d9d0 2bbf 68da 9f3e
00000020: 9298 a5be 77af 103f 5523 febe 3981 9ebe
00000030: f863 433f 073a 58be 5471 233e b6fe dc3e
00000040: 2296 933e 108a 8bbe ec86 1ebe 98c1 35bb
00000050: 633a d93c 4ca1 3cbe 62e9 a93e fa9f a3be
00000060: f064 7fbe 84c7 4dbe a582 a43d 201c 41be
00000070: 5847 4a3a 6b9a 723e 876b 023e 2756 dabe
00000080: b1f7 b4be ba7d d3be dd8b 8dbe ab09 b53e
00000090: 77c1 16bf 64d3 883e 8f0e 27be 93ca a4be
000000a0: b102 f53e f89d 64be c3eb 2b3e c573 afbe
000000b0: aab9 833e cd2a fbbe b759 b23d bf9f 22bf
000000c0: 941b cdbe 5b9b 85bd 1c57 aebe 4024 8b3d
000000d0: 3904 0a3e 18c7 1dbf 71ae bdbe d570 30bf
000000e0: d88b 3fbd 0b3e da3c 3d76 6ebd 938f 253e
000000f0: 9199 dfbe fa02 c13e c7b5 cc3e 57e0 54bd
-0.37753087 -0.6292 -0.4096006 -0.35984257 -0.23241489 0.06943313 -0.6711555 0.31221318
-0.32342964 0.5651774 -0.4963633 -0.30957964 0.76324415 -0.21115886 0.159612 0.4316308
0.2882548 -0.2725377 -0.15481156 -0.00277338 0.026517099 -0.18420905 0.3318587 -0.3195799
-0.24940848 -0.2009564 0.08032731 -0.18858385 0.00077163195 0.23691718 0.12736331 -0.42643854
-0.35345224 -0.4130686 -0.2764577 0.3535894 -0.58888954 0.26723778 -0.16314147 -0.32185802
0.47853616 -0.22325885 0.16789155 -0.34268013 0.25727588 -0.49056092 0.08708518 -0.63525003
-0.40060103 -0.06523772 -0.34050834 0.067940235 0.13478173 -0.6163192 -0.3704715 -0.6892217
-0.046764225 0.026640913 -0.05821823 0.1616805 -0.4367185 0.37697583 0.39982435 -0.05197176

fc2.weight f4 [64, 64]
00000000: 61a6 69be 99d2 8dbe 3898 983e 1fa7 303e
00000010: ee7c ecbf 139f b1bd 4b26 fdbd 8849 193e
00000020: 6a5f 8e3e bbb5 0cbf 96be 803e 2923 7abf
00000030: 1871 883e d6a2 473d 9a86 ed3e e62a 55be
00000040: f568 59bf 6061 19bf 0d8f 473f 8749 243c
00000050: 623b a5bf 52fc 7e3d 5e19 7cbf eaf7 3dbf
00000060: 1ab0 423f c771 cd3e c29f 16bf 623f c13e
00000070: cc0f 3a3e 82c2 21bf b6e8 33bf 7110 bcbf
00000080: f72c 53bf ded0 99be 4925 a03d c48f b5be
00000090: 6c32 173f e5d7 2ebf d8ac 093f 301d ebba
000000a0: 9600 bebc 8dd4 6ebd 5dce ffbe a1cd 8abe
000000b0: 6ee0 09bf 60e4 e13d 8b7e df3d aec2 8a3e
000000c0: 6267 fcbd 8ab7 9abf 976a c93d 6f61 19bd
000000d0: 86e5 b1be 3a93 60be 7608 26be cbbf 9fbe
000000e0: 046f c2bd 7ae9 cfbf 967c 1d3f 130a e43e
000000f0: ef12 24bf 2189 8c3e f2af ecbb 7755 b43f
00000100: bfdd b83f eb72 423f f05f f53c cdd5 cd3d
00000110: 8d47 89bd 3ff9 983e 597d fb3e 3160 103e
00000120: 08d5 3dbe 9621 92be d2e4 af3e c010 883e
00000130: 7a77 373f 0149 85bf db94 153f d159 53bf
00000140: 3b25 efbd e590 423f 9438 abbe 5fe0 803e
00000150: 395d e3be 26fb 02bf 9f80 a53e d54a 1c3f
00000160: 803b 4e3f 1a15 41bf 7dfa d83d 4402 9ebf
00000170: 4a32 1a3c 02a8 1dbe a18b 63bc d905 24bf
00000180: 8b42 793e 6dca a53f 9037 4fbd 3f2a 97bf
00000190: 6d71 9fbf b617 87bf e96a 493f 1ea6 633e
000001a0: 4244 953e 5a0e ae3d 4298 10bf 580b 7a3e
000001b0: 3b9a 61bf 0ecc a2bc 24ae d93d eabe 14bf
000001c0: c4d9 ea3d 951d a8be 280a 1dbf 7738 16be
000001d0: f996 f9bd bfc0 5e3d db86 f63e ae70 1e3e
000001e0: 29f2 a1be 0725 f9bc 8a0c 673e 5a2e 23be
000001f0: f759 3bbf 37ed 9cbf 7a8e fcbe 0b54 243f
00000200: c18e 003f 384e 32be 3b57 b53b e744 c9be
00000210: f910 0dbf 7269 04bd 968e b0be ddad 72be
00000220: bb0c 0cbf afe2 91bc 64ab 0ebe 00cc d3be
00000230: 088d 17bc 1179 cf3d e4d1 5c3c af3f 07bf
00000240: 8a2d 12bf e877 e03e 93eb b03e 957c a7be
00000250: 13e1 67bf c541 373e f71d 99be b482 52bd
00000260: ca33 71be f0b4 993c 7812 0bbf 01bc 153d
00000270: 22d3 393e 34af 50be f11c b3be 61d9 813e
00000280: d6d8 efbe f493 743d 3721 553d 09f5 2bbe
00000290: bf98 c4be 7cc2 59be f831 dbbe 7d8a 16bf
000002a0: ddf7 2cbe a054 ddbb ed39 bcb9 2834 0bbf
000002b0: 3fb7 ae3d 1dfa bf3d 5433 60be e7a0 f43c
000002c0: 374b a5be f580 26bf 3feb ba3d c00a 7ebe
000002d0: ea63 ebbe fa2e f139 65f4 06be 920d 203e
000002e0: fa46 d0be 50f2 e2bc c110 3a3f 5e7c 8bbe
000002f0: 7789 bfbe bd23 45bf f138 2e3e 602c 6bba
00000300: 69ae ba3e 106d 31bf 9613 433e fcaa e4bd
00000310: deea 1ebf b77c 623a 8103 433e 2a3b b43d
00000320: 6f26 dabe c8b6 66bf 48bc c7be 7d54 c6be
00000330: 1853 eebd 5d79 3c3f 64f4 f7be a9ea 85bd
00000340: 1d12 d6bf 4ca1 b4bc 573b ef3e 19a1 043f
00000350: 2714 96bf 4ff9 cc3e ff07 a8bf b16e 42be
00000360: 4c23 84bf 186a 533e d6e4 9abe 89e7 ab3c
00000370: a353 1abe 3d39 1d3e d231 98bd d066 7c3f
00000380: 7991 3c3e 1168 d0be d563 8b3d f522 21bf
00000390: b0a5 423e c085 433e af81 00be 6e14 10bf
000003a0: f213 943b 4cae db3d 28c1 113f 1669 3dbe
000003b0: 6896 853f 7b86 94bd cc82 dd3c 13da e53d
000003c0: 2690 b3bf 6aed bd3e e514 2d3e f451 45bf
000003d0: 12d0 11be 3f6e 573e 5d87 29bf 3f73 693f
000003e0: fbe0 a2bf 4a66 a8bf 128f 0a3f 50d4 a1be
000003f0: c7e3 233d 9133 bcbe 5e34 41bf 8a46 09bf
-0.22817375 -0.27699736 0.29803634 0.17251252 -1.8475626 -0.08672919 -0.123608194 0.14969456
0.2780717 -0.549648 0.25145406 -0.977099 0.26648784 0.048739277 0.46391755 -0.20817146
-0.84925777 -0.5991421 0.77952653 0.010027296 -1.2908747 0.06225235 -0.9847621 -0.7420641
0.7604996 0.40125868 -0.5883752 0.3774367 0.18170089 -0.6318742 -0.70276964 -1.4692518
-0.82490486 -0.30042166 0.078196116 -0.35461247 0.5906131 -0.6829818 0.53779364 -0.0017937776
-0.023193639 -0.058308173 -0.4996213 -0.27110007 -0.5385808 0.11029887 0.10912808 0.27101654
-0.12324406 -1.2087262 0.098347835 -0.037446436 -0.34745425 -0.21931162 -0.16214165 -0.31201014
-0.09493831 -1.6243126 0.6151823 0.44538936 -0.6409139 0.2744837 -0.0072231228 1.4088582
1.4442672 0.759566 0.029952973 0.10050545 -0.067031 0.2987766 0.4911907 0.14099194
-0.18538296 -0.2854125 0.34354264 0.2657528 0.7166668 -1.0412904 0.5843026 -0.82558924
-0.11677023 0.7600234 -0.33441603 0.25171182 -0.4440706 -0.5116447 0.32324693 0.61051685
0.8055954 -0.75422823 0.10594652 -1.2344441 0.009411404 -0.15396121 -0.013888271 -0.6407142
0.2434179 1.29524 -0.050590098 -1.1809767 -1.245649 -1.0554111 0.78678757 0.22231337
0.2915364 0.08498831 -0.56482327 0.2441839 -0.8812596 -0.019872691 0.10628918 -0.5810381
0.11467317 -0.3283507 -0.6134362 -0.14669977 -0.12186999 0.054383036 0.48149762 0.15472671
-0.31630066 -0.030413164 0.22563377 -0.1593565 -0.7318415 -1.2259892 -0.4932745 0.6419074
0.50217825 -0.1741265 0.0055340803 -0.3931038 -0.55104023 -0.032327123 -0.34483784 -0.23699136
-0.54706925 -0.017808286 -0.13932568 -0.41366577 -0.009249933 0.101305135 0.013477776 -0.5283155
-0.5710074 0.4384148 0.3455473 -0.32712236 -0.9057781 0.17896183 -0.29905674 -0.05139418
-0.23554912 0.018763036 -0.54325056 0.036556248 0.18146947 -0.20379335 -0.34983018 0.2536116
-0.4684512 0.05971141 0.05203363 -0.16792692 -0.38397786 -0.21265596 -0.4281156 -0.58805066
-0.16891427 -0.006754473 -0.00035901312 -0.5437646 0.08531045 0.09373877 -0.2189458 0.02986188
-0.32283947 -0.6504052 0.09126901 -0.24808788 -0.45974666 0.00046002102 -0.13179167 0.15630177
-0.4067915 -0.027703434 0.72681814 -0.27243322 -0.37409565 -0.7700766 0.17013909 -0.0008971151
0.3646119 -0.6930704 0.1905044 -0.11165425 -0.6207713 0.00086398 0.19044305 0.08800347
-0.42607448 -0.9012265 -0.39010835 -0.38736334 -0.116369426 0.73622686 -0.48428643 -0.065388985
-1.6724278 -0.022049569 0.4672496 0.51808316 -1.17249 0.40033957 -1.312744 -0.18987538
-1.0323272 0.2064594 -0.30252713 0.020984428 -0.15070967 0.15353866 -0.074313775 0.9859438
0.18414868 -0.40704396 0.06806151 -0.62943965 0.19008517 0.1909399 -0.1254947 -0.56281173
0.004518979 0.10726604 0.5693536 -0.18497118 1.0436525 -0.072522126 0.027039908 0.11223235
-1.4028366 0.37095195 0.16902502 -0.77078176 -0.14239529 0.2103815 -0.6622217 0.91191477
-1.2724909 -1.3156216 0.5412456 -0.31607294 0.040012147 -0.36758092 -0.7547053 -0.5362326

fc2.bias f4 [64]
00000000: 7a94 95bd 1f94 0cbe b22b cbbe 99ab bdbe
00000010: 94cc 02be 6d60 1ebf 4f9d e2be ca2c b6bd
00000020: 15f8 463e 5997 58be 66d2 acbd 196c 8fbd
00000030: ae46 783e ea53 b6be 8af9 88bd 66f5 59bd
00000040: 78f1 83be 4da5 e53e 65eb 0dbf 3beb bbbe
00000050: ac88 1b3c ff55 b33e 5312 a93e f2f0 10bc
00000060: c8c8 8a3e 2240 a93c 02fc 703e 5ccd edbd
00000070: 02f4 68be 5af3 513e 8552 18be f551 273e
00000080: b9e1 9f3c ab31 a7bd 2202 3bbe af63 abbd
00000090: ba2a 1bbe 3b3c c8be 0f73 54bd 0ea3 26bf
000000a0: a73f 02bf 404f 0cbe e762 dd3c 829c 86bd
000000b0: 0d10 073e 830b 00be 9b71 043f 8b3d 93be
000000c0: 2c2a 093e decc 73bc cbd2 823d 6a5d b8be
000000d0: 881d abbe 6f48 d5be 3933 053e 076c 40be
000000e0: 8f24 69be 2aeb 28be b20f 74be 47d6 943e
000000f0: d50f 51be 825d da3e efe1 c2bd d600 2ebe
-0.0730371 -0.13728379 -0.39681774 -0.3704498 -0.12773353 -0.61865884 -0.44260642 -0.088952616
0.19430573 -0.21151485 -0.08438568 -0.0700304 0.24245712 -0.35610896 -0.06688221 -0.053212546
-0.25770164 0.44852677 -0.5543731 -0.36702904 0.009493034 0.35026547 0.33021793 -0.008846508
0.2710631 0.020660464 0.23533633 -0.11611435 -0.22749332 0.20502988 -0.14875229 0.16339858
0.019516813 -0.0816377 -0.18262532 -0.083686225 -0.15153018 -0.39108452 -0.05186754 -0.6509255
-0.50878376 -0.13702106 0.0270247 -0.0657282 0.13189717 -0.12504391 0.5173585 -0.2875789
0.13394994 -0.014880387 0.06387862 -0.3600877 -0.33420968 -0.41656825 0.13007821 -0.18791209
-0.22767852 -0.16495958 -0.23834112 0.2906973 -0.20416196 0.42649466 -0.0951575 -0.16992506

fc3.weight f4 [3, 64]
00000000: 8eef 77bd 7365 843e 892f aa3c fd24 e1be
00000010: 396c 4f3d 780a 453f 7788 943e 7dc6 af3d
00000020: 9069 073f 571c 623e 7a2d abbe fa0e a1bc
00000030: 3196 6a3e 71e2 3fbe 3ac0 113e 74e0 91bd
00000040: 56e9 bcbe 4ed0 d63e 1773 48be b935 973d
00000050: 0cf4 90bf 2094 53bf 09c4 593e ed11 e5be
00000060: 3c42 4bc0 589d bb3d eeed 12be 05d5 0bbd
00000070: 6098 613e 0913 1b3e 35b9 babc 0afc af3d
00000080: d772 00c0 8ff1 81bf b87f b63e 9cb2 783e
00000090: 5d08 e03d 92de a23d 1a54 773f 554d 523f
000000a0: eeb5 59bf 8dcf 443d 30ee 003d d141 7b3d
000000b0: 6a6f 993d 8a5b cebc 1881 ac3e b0ba 14bf
000000c0: aea9 0b3f d283 00bf a38c 76be bc3a 993d
000000d0: 6975 cebd c9e7 91bf 9025 1bbd 7233 7abf
000000e0: 3ecc ecbe 2f89 d83d db8a 39bf f40a 453e
000000f0: 4247 083c b232 8e3e ea78 dd3d 91b7 b1bf
00000100: 3ad9 0dc0 5e50 02c0 9c5d 4bbf f3e2 4fbf
00000110: ccf8 093f ddfb 563f bf5b b3bf 274a b9bd
00000120: 8e2c 1fbf 7752 223d 1424 e5be 852e aa3c
00000130: d3fa d0be ed06 0b3e 048c b7be c48a 75bc
00000140: 4835 023e 77ee df3e 5f06 6fbf 7772 80bf
00000150: 943d aa3d d8cc e6be 4130 903e 7e72 2ebf
00000160: f0cb 553e 183f aebe e2d7 35c0 8a8c 023c
00000170: cdfb 98bd 9ce3 933e 5844 d33c 0205 fa3d
00000180: 0757 b6bd 4f39 88be 0108 183e 9404 13bd
00000190: f02d f13d 6f70 4f3c 0663 2d3f f052 7dbd
000001a0: 7962 3b3f ba77 c73c d626 36bf c4c2 51bc
000001b0: 6f4b d8bd d45e 903b b931 933e 994b e9be
000001c0: c4ee b2be 7e08 0dbf a0ea 20bf bfb0 27bf
000001d0: 627f 20bf 1af6 233f 0177 5c3e 76a6 a4be
000001e0: 0a0c f63e 6e3c 583c cc10 ff3e 0940 c0bd
000001f0: 6742 103d b9d4 583e fa83 bcbb 7703 8c3e
00000200: 1747 d6bd fe9b 1b3f 3cbd 583d ef14 883e
00000210: c2de b0bf 187d 2f3f 1cad 4e3e bc9d 3b3d
00000220: 83f0 70be 25fe 2bbc 6c67 81be 2760 f9bd
00000230: 89d6 793e 47ea 85bf 06ac 1b3e 100d afbd
00000240: 493a 233f 5bb0 8a3e dcb6 99be 50fa 8cbd
00000250: 6ad1 113e a729 04bf 6cea 1f3e af0a 1bbe
00000260: 75a3 c8be be97 8e3e b16f f63e 3c1d 9a3c
00000270: dff2 f0bd e548 c23e 71b9 623d f294 fa3e
00000280: 1de2 f03e c768 503f 5a4f 01c0 5e28 f2bf
00000290: fdff a43e 087f 653e cb28 37bd c7df e2bf
000002a0: ca54 66be 9ee8 abbc d052 d5be 45b1 eabd
000002b0: 482c 2ebf 369a bd3d 137d 87bd a868 29be
000002c0: d142 59bf e6eb 3ebf 10b3 453e 9911 593f
000002d0: d4bc 6a3e 9745 1dbf 90cd eabf 6724 cfbd
000002e0: 8022 253e de22 54bd e53f 32be 9bd2 233e
000002f0: 7d38 cebd e106 5d3e 9bf3 883c f883 bd3e
-0.06053119 0.2585865 0.02077462 -0.43973532 0.05064032 0.769691 0.29010364 0.085827805
0.5289545 0.22081123 -0.33433133 -0.019660462 0.22908856 -0.18738724 0.14233485 -0.07122889
-0.3689677 0.419558 -0.19575153 0.07383294 -1.1324477 -0.82647896 0.21266188 -0.4474024
-3.1759176 0.0916087 -0.14348575 -0.034138698 0.22030783 0.1514398 -0.022793392 0.085929945
-2.0070093 -1.0151843 0.35644317 0.24286884 0.10939095 0.07952608 0.96612704 0.8214925
-0.8504323 0.0480495 0.031477153 0.061342064 0.07491954 -0.025190134 0.3369224 -0.5809736
0.54555786 -0.5020114 -0.24077086 0.07481906 -0.10080988 -1.139886 -0.03787762 -0.9773475
-0.46249574 0.10573041 -0.724775 0.1924246 0.00831777 0.27773052 0.10814078 -1.3884145
-2.2163835 -2.0361552 -0.7943971 -0.8120567 0.5389526 0.8397806 -1.4012374 -0.090473466
-0.6217736 0.039629426 -0.44754088 0.020774135 -0.40816364 0.1357686 -0.3584901 -0.014986698
0.12715638 0.43736622 -0.93369097 -1.0034932 0.08312526 -0.45078158 0.28161815 -0.6814345
0.20878577 -0.34032512 -2.8413014 0.007968077 -0.07469902 0.2888459 0.025789425 0.122079864
-0.08903318 -0.26606223 0.14846803 -0.035893038 0.1177634 0.012661084 0.6772922 -0.061846673
0.7319713 0.024349082 -0.7115301 -0.012802783 -0.10561263 0.0044058356 0.28748873 -0.4556549
-0.3494779 -0.55091083 -0.6285801 -0.6550407 -0.6269437 0.64047396 0.21529771 -0.3215825
0.4805606 0.013198001 0.49817502 -0.09387214 0.035219576 0.21174897 -0.0057530375 0.27346393
-0.10462778 0.607849 0.052914843 0.2657847 -1.381798 0.6855025 0.20183223 0.045804724
-0.23529248 -0.0104976045 -0.25274217 -0.12176543 0.24398245 -1.0462121 0.1520234 -0.08547413
0.6376081 0.27087674 -0.30022323 -0.06883681 0.14240041 -0.51626056 0.15616769 -0.15140794
-0.39187208 0.27850145 0.4813209 0.018812768 -0.11765074 0.3794624 0.055352632 0.4894176
0.4704751 0.8140988 -2.0204682 -1.8918569 0.32226554 0.2241174 -0.044716638 -1.7724541
-0.22493282 -0.020984944 -0.41664743 -0.11459593 -0.6803632 0.09257929 -0.06615653 -0.1654383
-0.8486758 -0.745787 0.19306588 0.84792477 0.22923595 -0.6143431 -1.8343983 -0.10114365
0.16126442 -0.051791064 -0.17407186 0.15998308 -0.10069368 0.21584655 0.016717723 0.37014747

fc3.bias f4 [3]
00000000: e0f1 0a3f 791e 2e3e 46b1 3f3e
0.5427532 0.17003812 0.18719968
